{"format": "layers-model", "generatedBy": "keras v2.9.0", "convertedBy": "TensorFlow.js Converter v3.19.0", "modelTopology": {"keras_version": "2.9.0", "backend": "tensorflow", "model_config": {"class_name": "Functional", "config": {"name": "model", "layers": [{"class_name": "InputLayer", "config": {"batch_input_shape": [null, 224, 224, 3], "dtype": "float32", "sparse": false, "ragged": false, "name": "input_1"}, "name": "input_1", "inbound_nodes": []}, {"class_name": "ZeroPadding2D", "config": {"name": "conv1_pad", "trainable": false, "dtype": "float32", "padding": [[3, 3], [3, 3]], "data_format": "channels_last"}, "name": "conv1_pad", "inbound_nodes": [[["input_1", 0, 0, {}]]]}, {"class_name": "Conv2D", "config": {"name": "conv1_conv", "trainable": false, "dtype": "float32", "filters": 64, "kernel_size": [7, 7], "strides": [2, 2], "padding": "valid", "data_format": "channels_last", "dilation_rate": [1, 1], "groups": 1, "activation": "linear", "use_bias": true, "kernel_initializer": {"class_name": "GlorotUniform", "config": {"seed": null}}, "bias_initializer": {"class_name": "Zeros", "config": {}}, "kernel_regularizer": null, "bias_regularizer": null, "activity_regularizer": null, "kernel_constraint": null, "bias_constraint": null}, "name": "conv1_conv", "inbound_nodes": [[["conv1_pad", 0, 0, {}]]]}, {"class_name": "ZeroPadding2D", "config": {"name": "pool1_pad", "trainable": false, "dtype": "float32", "padding": [[1, 1], [1, 1]], "data_format": "channels_last"}, "name": "pool1_pad", "inbound_nodes": [[["conv1_conv", 0, 0, {}]]]}, {"class_name": "MaxPooling2D", "config": {"name": "pool1_pool", "trainable": false, "dtype": "float32", "pool_size": [3, 3], "padding": "valid", "strides": [2, 2], "data_format": "channels_last"}, "name": "pool1_pool", "inbound_nodes": [[["pool1_pad", 0, 0, {}]]]}, {"class_name": "BatchNormalization", "config": {"name": "conv2_block1_preact_bn", "trainable": false, "dtype": "float32", "axis": [3], "momentum": 0.99, "epsilon": 1.001e-05, "center": true, "scale": true, "beta_initializer": {"class_name": "Zeros", "config": {}}, "gamma_initializer": {"class_name": "Ones", "config": {}}, "moving_mean_initializer": {"class_name": "Zeros", "config": {}}, "moving_variance_initializer": {"class_name": "Ones", "config": {}}, "beta_regularizer": null, "gamma_regularizer": null, "beta_constraint": null, "gamma_constraint": null}, "name": "conv2_block1_preact_bn", "inbound_nodes": [[["pool1_pool", 0, 0, {}]]]}, {"class_name": "Activation", "config": {"name": "conv2_block1_preact_relu", "trainable": false, "dtype": "float32", "activation": "relu"}, "name": "conv2_block1_preact_relu", "inbound_nodes": [[["conv2_block1_preact_bn", 0, 0, {}]]]}, {"class_name": "Conv2D", "config": {"name": "conv2_block1_1_conv", "trainable": false, "dtype": "float32", "filters": 64, "kernel_size": [1, 1], "strides": [1, 1], "padding": "valid", "data_format": "channels_last", "dilation_rate": [1, 1], "groups": 1, "activation": "linear", "use_bias": false, "kernel_initializer": {"class_name": "GlorotUniform", "config": {"seed": null}}, "bias_initializer": {"class_name": "Zeros", "config": {}}, "kernel_regularizer": null, "bias_regularizer": null, "activity_regularizer": null, "kernel_constraint": null, "bias_constraint": null}, "name": "conv2_block1_1_conv", "inbound_nodes": [[["conv2_block1_preact_relu", 0, 0, {}]]]}, {"class_name": "BatchNormalization", "config": {"name": "conv2_block1_1_bn", "trainable": false, "dtype": "float32", "axis": [3], "momentum": 0.99, "epsilon": 1.001e-05, "center": true, "scale": true, "beta_initializer": {"class_name": "Zeros", "config": {}}, "gamma_initializer": {"class_name": "Ones", "config": {}}, "moving_mean_initializer": {"class_name": "Zeros", "config": {}}, "moving_variance_initializer": {"class_name": "Ones", "config": {}}, "beta_regularizer": null, "gamma_regularizer": null, "beta_constraint": null, "gamma_constraint": null}, "name": "conv2_block1_1_bn", "inbound_nodes": [[["conv2_block1_1_conv", 0, 0, {}]]]}, {"class_name": "Activation", "config": {"name": "conv2_block1_1_relu", "trainable": false, "dtype": "float32", "activation": "relu"}, "name": "conv2_block1_1_relu", "inbound_nodes": [[["conv2_block1_1_bn", 0, 0, {}]]]}, {"class_name": "ZeroPadding2D", "config": {"name": "conv2_block1_2_pad", "trainable": false, "dtype": "float32", "padding": [[1, 1], [1, 1]], "data_format": "channels_last"}, "name": "conv2_block1_2_pad", "inbound_nodes": [[["conv2_block1_1_relu", 0, 0, {}]]]}, {"class_name": "Conv2D", "config": {"name": "conv2_block1_2_conv", "trainable": false, "dtype": "float32", "filters": 64, "kernel_size": [3, 3], "strides": [1, 1], "padding": "valid", "data_format": "channels_last", "dilation_rate": [1, 1], "groups": 1, "activation": "linear", "use_bias": false, "kernel_initializer": {"class_name": "GlorotUniform", "config": {"seed": null}}, "bias_initializer": {"class_name": "Zeros", "config": {}}, "kernel_regularizer": null, "bias_regularizer": null, "activity_regularizer": null, "kernel_constraint": null, "bias_constraint": null}, "name": "conv2_block1_2_conv", "inbound_nodes": [[["conv2_block1_2_pad", 0, 0, {}]]]}, {"class_name": "BatchNormalization", "config": {"name": "conv2_block1_2_bn", "trainable": false, "dtype": "float32", "axis": [3], "momentum": 0.99, "epsilon": 1.001e-05, "center": true, "scale": true, "beta_initializer": {"class_name": "Zeros", "config": {}}, "gamma_initializer": {"class_name": "Ones", "config": {}}, "moving_mean_initializer": {"class_name": "Zeros", "config": {}}, "moving_variance_initializer": {"class_name": "Ones", "config": {}}, "beta_regularizer": null, "gamma_regularizer": null, "beta_constraint": null, "gamma_constraint": null}, "name": "conv2_block1_2_bn", "inbound_nodes": [[["conv2_block1_2_conv", 0, 0, {}]]]}, {"class_name": "Activation", "config": {"name": "conv2_block1_2_relu", "trainable": false, "dtype": "float32", "activation": "relu"}, "name": "conv2_block1_2_relu", "inbound_nodes": [[["conv2_block1_2_bn", 0, 0, {}]]]}, {"class_name": "Conv2D", "config": {"name": "conv2_block1_0_conv", "trainable": false, "dtype": "float32", "filters": 256, "kernel_size": [1, 1], "strides": [1, 1], "padding": "valid", "data_format": "channels_last", "dilation_rate": [1, 1], "groups": 1, "activation": "linear", "use_bias": true, "kernel_initializer": {"class_name": "GlorotUniform", "config": {"seed": null}}, "bias_initializer": {"class_name": "Zeros", "config": {}}, "kernel_regularizer": null, "bias_regularizer": null, "activity_regularizer": null, "kernel_constraint": null, "bias_constraint": null}, "name": "conv2_block1_0_conv", "inbound_nodes": [[["conv2_block1_preact_relu", 0, 0, {}]]]}, {"class_name": "Conv2D", "config": {"name": "conv2_block1_3_conv", "trainable": false, "dtype": "float32", "filters": 256, "kernel_size": [1, 1], "strides": [1, 1], "padding": "valid", "data_format": "channels_last", "dilation_rate": [1, 1], "groups": 1, "activation": "linear", "use_bias": true, "kernel_initializer": {"class_name": "GlorotUniform", "config": {"seed": null}}, "bias_initializer": {"class_name": "Zeros", "config": {}}, "kernel_regularizer": null, "bias_regularizer": null, "activity_regularizer": null, "kernel_constraint": null, "bias_constraint": null}, "name": "conv2_block1_3_conv", "inbound_nodes": [[["conv2_block1_2_relu", 0, 0, {}]]]}, {"class_name": "Add", "config": {"name": "conv2_block1_out", "trainable": false, "dtype": "float32"}, "name": "conv2_block1_out", "inbound_nodes": [[["conv2_block1_0_conv", 0, 0, {}], ["conv2_block1_3_conv", 0, 0, {}]]]}, {"class_name": "BatchNormalization", "config": {"name": "conv2_block2_preact_bn", "trainable": false, "dtype": "float32", "axis": [3], "momentum": 0.99, "epsilon": 1.001e-05, "center": true, "scale": true, "beta_initializer": {"class_name": "Zeros", "config": {}}, "gamma_initializer": {"class_name": "Ones", "config": {}}, "moving_mean_initializer": {"class_name": "Zeros", "config": {}}, "moving_variance_initializer": {"class_name": "Ones", "config": {}}, "beta_regularizer": null, "gamma_regularizer": null, "beta_constraint": null, "gamma_constraint": null}, "name": "conv2_block2_preact_bn", "inbound_nodes": [[["conv2_block1_out", 0, 0, {}]]]}, {"class_name": "Activation", "config": {"name": "conv2_block2_preact_relu", "trainable": false, "dtype": "float32", "activation": "relu"}, "name": "conv2_block2_preact_relu", "inbound_nodes": [[["conv2_block2_preact_bn", 0, 0, {}]]]}, {"class_name": "Conv2D", "config": {"name": "conv2_block2_1_conv", "trainable": false, "dtype": "float32", "filters": 64, "kernel_size": [1, 1], "strides": [1, 1], "padding": "valid", "data_format": "channels_last", "dilation_rate": [1, 1], "groups": 1, "activation": "linear", "use_bias": false, "kernel_initializer": {"class_name": "GlorotUniform", "config": {"seed": null}}, "bias_initializer": {"class_name": "Zeros", "config": {}}, "kernel_regularizer": null, "bias_regularizer": null, "activity_regularizer": null, "kernel_constraint": null, "bias_constraint": null}, "name": "conv2_block2_1_conv", "inbound_nodes": [[["conv2_block2_preact_relu", 0, 0, {}]]]}, {"class_name": "BatchNormalization", "config": {"name": "conv2_block2_1_bn", "trainable": false, "dtype": "float32", "axis": [3], "momentum": 0.99, "epsilon": 1.001e-05, "center": true, "scale": true, "beta_initializer": {"class_name": "Zeros", "config": {}}, "gamma_initializer": {"class_name": "Ones", "config": {}}, "moving_mean_initializer": {"class_name": "Zeros", "config": {}}, "moving_variance_initializer": {"class_name": "Ones", "config": {}}, "beta_regularizer": null, "gamma_regularizer": null, "beta_constraint": null, "gamma_constraint": null}, "name": "conv2_block2_1_bn", "inbound_nodes": [[["conv2_block2_1_conv", 0, 0, {}]]]}, {"class_name": "Activation", "config": {"name": "conv2_block2_1_relu", "trainable": false, "dtype": "float32", "activation": "relu"}, "name": "conv2_block2_1_relu", "inbound_nodes": [[["conv2_block2_1_bn", 0, 0, {}]]]}, {"class_name": "ZeroPadding2D", "config": {"name": "conv2_block2_2_pad", "trainable": false, "dtype": "float32", "padding": [[1, 1], [1, 1]], "data_format": "channels_last"}, "name": "conv2_block2_2_pad", "inbound_nodes": [[["conv2_block2_1_relu", 0, 0, {}]]]}, {"class_name": "Conv2D", "config": {"name": "conv2_block2_2_conv", "trainable": false, "dtype": "float32", "filters": 64, "kernel_size": [3, 3], "strides": [1, 1], "padding": "valid", "data_format": "channels_last", "dilation_rate": [1, 1], "groups": 1, "activation": "linear", "use_bias": false, "kernel_initializer": {"class_name": "GlorotUniform", "config": {"seed": null}}, "bias_initializer": {"class_name": "Zeros", "config": {}}, "kernel_regularizer": null, "bias_regularizer": null, "activity_regularizer": null, "kernel_constraint": null, "bias_constraint": null}, "name": "conv2_block2_2_conv", "inbound_nodes": [[["conv2_block2_2_pad", 0, 0, {}]]]}, {"class_name": "BatchNormalization", "config": {"name": "conv2_block2_2_bn", "trainable": false, "dtype": "float32", "axis": [3], "momentum": 0.99, "epsilon": 1.001e-05, "center": true, "scale": true, "beta_initializer": {"class_name": "Zeros", "config": {}}, "gamma_initializer": {"class_name": "Ones", "config": {}}, "moving_mean_initializer": {"class_name": "Zeros", "config": {}}, "moving_variance_initializer": {"class_name": "Ones", "config": {}}, "beta_regularizer": null, "gamma_regularizer": null, "beta_constraint": null, "gamma_constraint": null}, "name": "conv2_block2_2_bn", "inbound_nodes": [[["conv2_block2_2_conv", 0, 0, {}]]]}, {"class_name": "Activation", "config": {"name": "conv2_block2_2_relu", "trainable": false, "dtype": "float32", "activation": "relu"}, "name": "conv2_block2_2_relu", "inbound_nodes": [[["conv2_block2_2_bn", 0, 0, {}]]]}, {"class_name": "Conv2D", "config": {"name": "conv2_block2_3_conv", "trainable": false, "dtype": "float32", "filters": 256, "kernel_size": [1, 1], "strides": [1, 1], "padding": "valid", "data_format": "channels_last", "dilation_rate": [1, 1], "groups": 1, "activation": "linear", "use_bias": true, "kernel_initializer": {"class_name": "GlorotUniform", "config": {"seed": null}}, "bias_initializer": {"class_name": "Zeros", "config": {}}, "kernel_regularizer": null, "bias_regularizer": null, "activity_regularizer": null, "kernel_constraint": null, "bias_constraint": null}, "name": "conv2_block2_3_conv", "inbound_nodes": [[["conv2_block2_2_relu", 0, 0, {}]]]}, {"class_name": "Add", "config": {"name": "conv2_block2_out", "trainable": false, "dtype": "float32"}, "name": "conv2_block2_out", "inbound_nodes": [[["conv2_block1_out", 0, 0, {}], ["conv2_block2_3_conv", 0, 0, {}]]]}, {"class_name": "BatchNormalization", "config": {"name": "conv2_block3_preact_bn", "trainable": false, "dtype": "float32", "axis": [3], "momentum": 0.99, "epsilon": 1.001e-05, "center": true, "scale": true, "beta_initializer": {"class_name": "Zeros", "config": {}}, "gamma_initializer": {"class_name": "Ones", "config": {}}, "moving_mean_initializer": {"class_name": "Zeros", "config": {}}, "moving_variance_initializer": {"class_name": "Ones", "config": {}}, "beta_regularizer": null, "gamma_regularizer": null, "beta_constraint": null, "gamma_constraint": null}, "name": "conv2_block3_preact_bn", "inbound_nodes": [[["conv2_block2_out", 0, 0, {}]]]}, {"class_name": "Activation", "config": {"name": "conv2_block3_preact_relu", "trainable": false, "dtype": "float32", "activation": "relu"}, "name": "conv2_block3_preact_relu", "inbound_nodes": [[["conv2_block3_preact_bn", 0, 0, {}]]]}, {"class_name": "Conv2D", "config": {"name": "conv2_block3_1_conv", "trainable": false, "dtype": "float32", "filters": 64, "kernel_size": [1, 1], "strides": [1, 1], "padding": "valid", "data_format": "channels_last", "dilation_rate": [1, 1], "groups": 1, "activation": "linear", "use_bias": false, "kernel_initializer": {"class_name": "GlorotUniform", "config": {"seed": null}}, "bias_initializer": {"class_name": "Zeros", "config": {}}, "kernel_regularizer": null, "bias_regularizer": null, "activity_regularizer": null, "kernel_constraint": null, "bias_constraint": null}, "name": "conv2_block3_1_conv", "inbound_nodes": [[["conv2_block3_preact_relu", 0, 0, {}]]]}, {"class_name": "BatchNormalization", "config": {"name": "conv2_block3_1_bn", "trainable": false, "dtype": "float32", "axis": [3], "momentum": 0.99, "epsilon": 1.001e-05, "center": true, "scale": true, "beta_initializer": {"class_name": "Zeros", "config": {}}, "gamma_initializer": {"class_name": "Ones", "config": {}}, "moving_mean_initializer": {"class_name": "Zeros", "config": {}}, "moving_variance_initializer": {"class_name": "Ones", "config": {}}, "beta_regularizer": null, "gamma_regularizer": null, "beta_constraint": null, "gamma_constraint": null}, "name": "conv2_block3_1_bn", "inbound_nodes": [[["conv2_block3_1_conv", 0, 0, {}]]]}, {"class_name": "Activation", "config": {"name": "conv2_block3_1_relu", "trainable": false, "dtype": "float32", "activation": "relu"}, "name": "conv2_block3_1_relu", "inbound_nodes": [[["conv2_block3_1_bn", 0, 0, {}]]]}, {"class_name": "ZeroPadding2D", "config": {"name": "conv2_block3_2_pad", "trainable": false, "dtype": "float32", "padding": [[1, 1], [1, 1]], "data_format": "channels_last"}, "name": "conv2_block3_2_pad", "inbound_nodes": [[["conv2_block3_1_relu", 0, 0, {}]]]}, {"class_name": "Conv2D", "config": {"name": "conv2_block3_2_conv", "trainable": false, "dtype": "float32", "filters": 64, "kernel_size": [3, 3], "strides": [2, 2], "padding": "valid", "data_format": "channels_last", "dilation_rate": [1, 1], "groups": 1, "activation": "linear", "use_bias": false, "kernel_initializer": {"class_name": "GlorotUniform", "config": {"seed": null}}, "bias_initializer": {"class_name": "Zeros", "config": {}}, "kernel_regularizer": null, "bias_regularizer": null, "activity_regularizer": null, "kernel_constraint": null, "bias_constraint": null}, "name": "conv2_block3_2_conv", "inbound_nodes": [[["conv2_block3_2_pad", 0, 0, {}]]]}, {"class_name": "BatchNormalization", "config": {"name": "conv2_block3_2_bn", "trainable": false, "dtype": "float32", "axis": [3], "momentum": 0.99, "epsilon": 1.001e-05, "center": true, "scale": true, "beta_initializer": {"class_name": "Zeros", "config": {}}, "gamma_initializer": {"class_name": "Ones", "config": {}}, "moving_mean_initializer": {"class_name": "Zeros", "config": {}}, "moving_variance_initializer": {"class_name": "Ones", "config": {}}, "beta_regularizer": null, "gamma_regularizer": null, "beta_constraint": null, "gamma_constraint": null}, "name": "conv2_block3_2_bn", "inbound_nodes": [[["conv2_block3_2_conv", 0, 0, {}]]]}, {"class_name": "Activation", "config": {"name": "conv2_block3_2_relu", "trainable": false, "dtype": "float32", "activation": "relu"}, "name": "conv2_block3_2_relu", "inbound_nodes": [[["conv2_block3_2_bn", 0, 0, {}]]]}, {"class_name": "MaxPooling2D", "config": {"name": "max_pooling2d", "trainable": false, "dtype": "float32", "pool_size": [1, 1], "padding": "valid", "strides": [2, 2], "data_format": "channels_last"}, "name": "max_pooling2d", "inbound_nodes": [[["conv2_block2_out", 0, 0, {}]]]}, {"class_name": "Conv2D", "config": {"name": "conv2_block3_3_conv", "trainable": false, "dtype": "float32", "filters": 256, "kernel_size": [1, 1], "strides": [1, 1], "padding": "valid", "data_format": "channels_last", "dilation_rate": [1, 1], "groups": 1, "activation": "linear", "use_bias": true, "kernel_initializer": {"class_name": "GlorotUniform", "config": {"seed": null}}, "bias_initializer": {"class_name": "Zeros", "config": {}}, "kernel_regularizer": null, "bias_regularizer": null, "activity_regularizer": null, "kernel_constraint": null, "bias_constraint": null}, "name": "conv2_block3_3_conv", "inbound_nodes": [[["conv2_block3_2_relu", 0, 0, {}]]]}, {"class_name": "Add", "config": {"name": "conv2_block3_out", "trainable": false, "dtype": "float32"}, "name": "conv2_block3_out", "inbound_nodes": [[["max_pooling2d", 0, 0, {}], ["conv2_block3_3_conv", 0, 0, {}]]]}, {"class_name": "BatchNormalization", "config": {"name": "conv3_block1_preact_bn", "trainable": false, "dtype": "float32", "axis": [3], "momentum": 0.99, "epsilon": 1.001e-05, "center": true, "scale": true, "beta_initializer": {"class_name": "Zeros", "config": {}}, "gamma_initializer": {"class_name": "Ones", "config": {}}, "moving_mean_initializer": {"class_name": "Zeros", "config": {}}, "moving_variance_initializer": {"class_name": "Ones", "config": {}}, "beta_regularizer": null, "gamma_regularizer": null, "beta_constraint": null, "gamma_constraint": null}, "name": "conv3_block1_preact_bn", "inbound_nodes": [[["conv2_block3_out", 0, 0, {}]]]}, {"class_name": "Activation", "config": {"name": "conv3_block1_preact_relu", "trainable": false, "dtype": "float32", "activation": "relu"}, "name": "conv3_block1_preact_relu", "inbound_nodes": [[["conv3_block1_preact_bn", 0, 0, {}]]]}, {"class_name": "Conv2D", "config": {"name": "conv3_block1_1_conv", "trainable": false, "dtype": "float32", "filters": 128, "kernel_size": [1, 1], "strides": [1, 1], "padding": "valid", "data_format": "channels_last", "dilation_rate": [1, 1], "groups": 1, "activation": "linear", "use_bias": false, "kernel_initializer": {"class_name": "GlorotUniform", "config": {"seed": null}}, "bias_initializer": {"class_name": "Zeros", "config": {}}, "kernel_regularizer": null, "bias_regularizer": null, "activity_regularizer": null, "kernel_constraint": null, "bias_constraint": null}, "name": "conv3_block1_1_conv", "inbound_nodes": [[["conv3_block1_preact_relu", 0, 0, {}]]]}, {"class_name": "BatchNormalization", "config": {"name": "conv3_block1_1_bn", "trainable": false, "dtype": "float32", "axis": [3], "momentum": 0.99, "epsilon": 1.001e-05, "center": true, "scale": true, "beta_initializer": {"class_name": "Zeros", "config": {}}, "gamma_initializer": {"class_name": "Ones", "config": {}}, "moving_mean_initializer": {"class_name": "Zeros", "config": {}}, "moving_variance_initializer": {"class_name": "Ones", "config": {}}, "beta_regularizer": null, "gamma_regularizer": null, "beta_constraint": null, "gamma_constraint": null}, "name": "conv3_block1_1_bn", "inbound_nodes": [[["conv3_block1_1_conv", 0, 0, {}]]]}, {"class_name": "Activation", "config": {"name": "conv3_block1_1_relu", "trainable": false, "dtype": "float32", "activation": "relu"}, "name": "conv3_block1_1_relu", "inbound_nodes": [[["conv3_block1_1_bn", 0, 0, {}]]]}, {"class_name": "ZeroPadding2D", "config": {"name": "conv3_block1_2_pad", "trainable": false, "dtype": "float32", "padding": [[1, 1], [1, 1]], "data_format": "channels_last"}, "name": "conv3_block1_2_pad", "inbound_nodes": [[["conv3_block1_1_relu", 0, 0, {}]]]}, {"class_name": "Conv2D", "config": {"name": "conv3_block1_2_conv", "trainable": false, "dtype": "float32", "filters": 128, "kernel_size": [3, 3], "strides": [1, 1], "padding": "valid", "data_format": "channels_last", "dilation_rate": [1, 1], "groups": 1, "activation": "linear", "use_bias": false, "kernel_initializer": {"class_name": "GlorotUniform", "config": {"seed": null}}, "bias_initializer": {"class_name": "Zeros", "config": {}}, "kernel_regularizer": null, "bias_regularizer": null, "activity_regularizer": null, "kernel_constraint": null, "bias_constraint": null}, "name": "conv3_block1_2_conv", "inbound_nodes": [[["conv3_block1_2_pad", 0, 0, {}]]]}, {"class_name": "BatchNormalization", "config": {"name": "conv3_block1_2_bn", "trainable": false, "dtype": "float32", "axis": [3], "momentum": 0.99, "epsilon": 1.001e-05, "center": true, "scale": true, "beta_initializer": {"class_name": "Zeros", "config": {}}, "gamma_initializer": {"class_name": "Ones", "config": {}}, "moving_mean_initializer": {"class_name": "Zeros", "config": {}}, "moving_variance_initializer": {"class_name": "Ones", "config": {}}, "beta_regularizer": null, "gamma_regularizer": null, "beta_constraint": null, "gamma_constraint": null}, "name": "conv3_block1_2_bn", "inbound_nodes": [[["conv3_block1_2_conv", 0, 0, {}]]]}, {"class_name": "Activation", "config": {"name": "conv3_block1_2_relu", "trainable": false, "dtype": "float32", "activation": "relu"}, "name": "conv3_block1_2_relu", "inbound_nodes": [[["conv3_block1_2_bn", 0, 0, {}]]]}, {"class_name": "Conv2D", "config": {"name": "conv3_block1_0_conv", "trainable": false, "dtype": "float32", "filters": 512, "kernel_size": [1, 1], "strides": [1, 1], "padding": "valid", "data_format": "channels_last", "dilation_rate": [1, 1], "groups": 1, "activation": "linear", "use_bias": true, "kernel_initializer": {"class_name": "GlorotUniform", "config": {"seed": null}}, "bias_initializer": {"class_name": "Zeros", "config": {}}, "kernel_regularizer": null, "bias_regularizer": null, "activity_regularizer": null, "kernel_constraint": null, "bias_constraint": null}, "name": "conv3_block1_0_conv", "inbound_nodes": [[["conv3_block1_preact_relu", 0, 0, {}]]]}, {"class_name": "Conv2D", "config": {"name": "conv3_block1_3_conv", "trainable": false, "dtype": "float32", "filters": 512, "kernel_size": [1, 1], "strides": [1, 1], "padding": "valid", "data_format": "channels_last", "dilation_rate": [1, 1], "groups": 1, "activation": "linear", "use_bias": true, "kernel_initializer": {"class_name": "GlorotUniform", "config": {"seed": null}}, "bias_initializer": {"class_name": "Zeros", "config": {}}, "kernel_regularizer": null, "bias_regularizer": null, "activity_regularizer": null, "kernel_constraint": null, "bias_constraint": null}, "name": "conv3_block1_3_conv", "inbound_nodes": [[["conv3_block1_2_relu", 0, 0, {}]]]}, {"class_name": "Add", "config": {"name": "conv3_block1_out", "trainable": false, "dtype": "float32"}, "name": "conv3_block1_out", "inbound_nodes": [[["conv3_block1_0_conv", 0, 0, {}], ["conv3_block1_3_conv", 0, 0, {}]]]}, {"class_name": "BatchNormalization", "config": {"name": "conv3_block2_preact_bn", "trainable": false, "dtype": "float32", "axis": [3], "momentum": 0.99, "epsilon": 1.001e-05, "center": true, "scale": true, "beta_initializer": {"class_name": "Zeros", "config": {}}, "gamma_initializer": {"class_name": "Ones", "config": {}}, "moving_mean_initializer": {"class_name": "Zeros", "config": {}}, "moving_variance_initializer": {"class_name": "Ones", "config": {}}, "beta_regularizer": null, "gamma_regularizer": null, "beta_constraint": null, "gamma_constraint": null}, "name": "conv3_block2_preact_bn", "inbound_nodes": [[["conv3_block1_out", 0, 0, {}]]]}, {"class_name": "Activation", "config": {"name": "conv3_block2_preact_relu", "trainable": false, "dtype": "float32", "activation": "relu"}, "name": "conv3_block2_preact_relu", "inbound_nodes": [[["conv3_block2_preact_bn", 0, 0, {}]]]}, {"class_name": "Conv2D", "config": {"name": "conv3_block2_1_conv", "trainable": false, "dtype": "float32", "filters": 128, "kernel_size": [1, 1], "strides": [1, 1], "padding": "valid", "data_format": "channels_last", "dilation_rate": [1, 1], "groups": 1, "activation": "linear", "use_bias": false, "kernel_initializer": {"class_name": "GlorotUniform", "config": {"seed": null}}, "bias_initializer": {"class_name": "Zeros", "config": {}}, "kernel_regularizer": null, "bias_regularizer": null, "activity_regularizer": null, "kernel_constraint": null, "bias_constraint": null}, "name": "conv3_block2_1_conv", "inbound_nodes": [[["conv3_block2_preact_relu", 0, 0, {}]]]}, {"class_name": "BatchNormalization", "config": {"name": "conv3_block2_1_bn", "trainable": false, "dtype": "float32", "axis": [3], "momentum": 0.99, "epsilon": 1.001e-05, "center": true, "scale": true, "beta_initializer": {"class_name": "Zeros", "config": {}}, "gamma_initializer": {"class_name": "Ones", "config": {}}, "moving_mean_initializer": {"class_name": "Zeros", "config": {}}, "moving_variance_initializer": {"class_name": "Ones", "config": {}}, "beta_regularizer": null, "gamma_regularizer": null, "beta_constraint": null, "gamma_constraint": null}, "name": "conv3_block2_1_bn", "inbound_nodes": [[["conv3_block2_1_conv", 0, 0, {}]]]}, {"class_name": "Activation", "config": {"name": "conv3_block2_1_relu", "trainable": false, "dtype": "float32", "activation": "relu"}, "name": "conv3_block2_1_relu", "inbound_nodes": [[["conv3_block2_1_bn", 0, 0, {}]]]}, {"class_name": "ZeroPadding2D", "config": {"name": "conv3_block2_2_pad", "trainable": false, "dtype": "float32", "padding": [[1, 1], [1, 1]], "data_format": "channels_last"}, "name": "conv3_block2_2_pad", "inbound_nodes": [[["conv3_block2_1_relu", 0, 0, {}]]]}, {"class_name": "Conv2D", "config": {"name": "conv3_block2_2_conv", "trainable": false, "dtype": "float32", "filters": 128, "kernel_size": [3, 3], "strides": [1, 1], "padding": "valid", "data_format": "channels_last", "dilation_rate": [1, 1], "groups": 1, "activation": "linear", "use_bias": false, "kernel_initializer": {"class_name": "GlorotUniform", "config": {"seed": null}}, "bias_initializer": {"class_name": "Zeros", "config": {}}, "kernel_regularizer": null, "bias_regularizer": null, "activity_regularizer": null, "kernel_constraint": null, "bias_constraint": null}, "name": "conv3_block2_2_conv", "inbound_nodes": [[["conv3_block2_2_pad", 0, 0, {}]]]}, {"class_name": "BatchNormalization", "config": {"name": "conv3_block2_2_bn", "trainable": false, "dtype": "float32", "axis": [3], "momentum": 0.99, "epsilon": 1.001e-05, "center": true, "scale": true, "beta_initializer": {"class_name": "Zeros", "config": {}}, "gamma_initializer": {"class_name": "Ones", "config": {}}, "moving_mean_initializer": {"class_name": "Zeros", "config": {}}, "moving_variance_initializer": {"class_name": "Ones", "config": {}}, "beta_regularizer": null, "gamma_regularizer": null, "beta_constraint": null, "gamma_constraint": null}, "name": "conv3_block2_2_bn", "inbound_nodes": [[["conv3_block2_2_conv", 0, 0, {}]]]}, {"class_name": "Activation", "config": {"name": "conv3_block2_2_relu", "trainable": false, "dtype": "float32", "activation": "relu"}, "name": "conv3_block2_2_relu", "inbound_nodes": [[["conv3_block2_2_bn", 0, 0, {}]]]}, {"class_name": "Conv2D", "config": {"name": "conv3_block2_3_conv", "trainable": false, "dtype": "float32", "filters": 512, "kernel_size": [1, 1], "strides": [1, 1], "padding": "valid", "data_format": "channels_last", "dilation_rate": [1, 1], "groups": 1, "activation": "linear", "use_bias": true, "kernel_initializer": {"class_name": "GlorotUniform", "config": {"seed": null}}, "bias_initializer": {"class_name": "Zeros", "config": {}}, "kernel_regularizer": null, "bias_regularizer": null, "activity_regularizer": null, "kernel_constraint": null, "bias_constraint": null}, "name": "conv3_block2_3_conv", "inbound_nodes": [[["conv3_block2_2_relu", 0, 0, {}]]]}, {"class_name": "Add", "config": {"name": "conv3_block2_out", "trainable": false, "dtype": "float32"}, "name": "conv3_block2_out", "inbound_nodes": [[["conv3_block1_out", 0, 0, {}], ["conv3_block2_3_conv", 0, 0, {}]]]}, {"class_name": "BatchNormalization", "config": {"name": "conv3_block3_preact_bn", "trainable": false, "dtype": "float32", "axis": [3], "momentum": 0.99, "epsilon": 1.001e-05, "center": true, "scale": true, "beta_initializer": {"class_name": "Zeros", "config": {}}, "gamma_initializer": {"class_name": "Ones", "config": {}}, "moving_mean_initializer": {"class_name": "Zeros", "config": {}}, "moving_variance_initializer": {"class_name": "Ones", "config": {}}, "beta_regularizer": null, "gamma_regularizer": null, "beta_constraint": null, "gamma_constraint": null}, "name": "conv3_block3_preact_bn", "inbound_nodes": [[["conv3_block2_out", 0, 0, {}]]]}, {"class_name": "Activation", "config": {"name": "conv3_block3_preact_relu", "trainable": false, "dtype": "float32", "activation": "relu"}, "name": "conv3_block3_preact_relu", "inbound_nodes": [[["conv3_block3_preact_bn", 0, 0, {}]]]}, {"class_name": "Conv2D", "config": {"name": "conv3_block3_1_conv", "trainable": false, "dtype": "float32", "filters": 128, "kernel_size": [1, 1], "strides": [1, 1], "padding": "valid", "data_format": "channels_last", "dilation_rate": [1, 1], "groups": 1, "activation": "linear", "use_bias": false, "kernel_initializer": {"class_name": "GlorotUniform", "config": {"seed": null}}, "bias_initializer": {"class_name": "Zeros", "config": {}}, "kernel_regularizer": null, "bias_regularizer": null, "activity_regularizer": null, "kernel_constraint": null, "bias_constraint": null}, "name": "conv3_block3_1_conv", "inbound_nodes": [[["conv3_block3_preact_relu", 0, 0, {}]]]}, {"class_name": "BatchNormalization", "config": {"name": "conv3_block3_1_bn", "trainable": false, "dtype": "float32", "axis": [3], "momentum": 0.99, "epsilon": 1.001e-05, "center": true, "scale": true, "beta_initializer": {"class_name": "Zeros", "config": {}}, "gamma_initializer": {"class_name": "Ones", "config": {}}, "moving_mean_initializer": {"class_name": "Zeros", "config": {}}, "moving_variance_initializer": {"class_name": "Ones", "config": {}}, "beta_regularizer": null, "gamma_regularizer": null, "beta_constraint": null, "gamma_constraint": null}, "name": "conv3_block3_1_bn", "inbound_nodes": [[["conv3_block3_1_conv", 0, 0, {}]]]}, {"class_name": "Activation", "config": {"name": "conv3_block3_1_relu", "trainable": false, "dtype": "float32", "activation": "relu"}, "name": "conv3_block3_1_relu", "inbound_nodes": [[["conv3_block3_1_bn", 0, 0, {}]]]}, {"class_name": "ZeroPadding2D", "config": {"name": "conv3_block3_2_pad", "trainable": false, "dtype": "float32", "padding": [[1, 1], [1, 1]], "data_format": "channels_last"}, "name": "conv3_block3_2_pad", "inbound_nodes": [[["conv3_block3_1_relu", 0, 0, {}]]]}, {"class_name": "Conv2D", "config": {"name": "conv3_block3_2_conv", "trainable": false, "dtype": "float32", "filters": 128, "kernel_size": [3, 3], "strides": [1, 1], "padding": "valid", "data_format": "channels_last", "dilation_rate": [1, 1], "groups": 1, "activation": "linear", "use_bias": false, "kernel_initializer": {"class_name": "GlorotUniform", "config": {"seed": null}}, "bias_initializer": {"class_name": "Zeros", "config": {}}, "kernel_regularizer": null, "bias_regularizer": null, "activity_regularizer": null, "kernel_constraint": null, "bias_constraint": null}, "name": "conv3_block3_2_conv", "inbound_nodes": [[["conv3_block3_2_pad", 0, 0, {}]]]}, {"class_name": "BatchNormalization", "config": {"name": "conv3_block3_2_bn", "trainable": false, "dtype": "float32", "axis": [3], "momentum": 0.99, "epsilon": 1.001e-05, "center": true, "scale": true, "beta_initializer": {"class_name": "Zeros", "config": {}}, "gamma_initializer": {"class_name": "Ones", "config": {}}, "moving_mean_initializer": {"class_name": "Zeros", "config": {}}, "moving_variance_initializer": {"class_name": "Ones", "config": {}}, "beta_regularizer": null, "gamma_regularizer": null, "beta_constraint": null, "gamma_constraint": null}, "name": "conv3_block3_2_bn", "inbound_nodes": [[["conv3_block3_2_conv", 0, 0, {}]]]}, {"class_name": "Activation", "config": {"name": "conv3_block3_2_relu", "trainable": false, "dtype": "float32", "activation": "relu"}, "name": "conv3_block3_2_relu", "inbound_nodes": [[["conv3_block3_2_bn", 0, 0, {}]]]}, {"class_name": "Conv2D", "config": {"name": "conv3_block3_3_conv", "trainable": false, "dtype": "float32", "filters": 512, "kernel_size": [1, 1], "strides": [1, 1], "padding": "valid", "data_format": "channels_last", "dilation_rate": [1, 1], "groups": 1, "activation": "linear", "use_bias": true, "kernel_initializer": {"class_name": "GlorotUniform", "config": {"seed": null}}, "bias_initializer": {"class_name": "Zeros", "config": {}}, "kernel_regularizer": null, "bias_regularizer": null, "activity_regularizer": null, "kernel_constraint": null, "bias_constraint": null}, "name": "conv3_block3_3_conv", "inbound_nodes": [[["conv3_block3_2_relu", 0, 0, {}]]]}, {"class_name": "Add", "config": {"name": "conv3_block3_out", "trainable": false, "dtype": "float32"}, "name": "conv3_block3_out", "inbound_nodes": [[["conv3_block2_out", 0, 0, {}], ["conv3_block3_3_conv", 0, 0, {}]]]}, {"class_name": "BatchNormalization", "config": {"name": "conv3_block4_preact_bn", "trainable": false, "dtype": "float32", "axis": [3], "momentum": 0.99, "epsilon": 1.001e-05, "center": true, "scale": true, "beta_initializer": {"class_name": "Zeros", "config": {}}, "gamma_initializer": {"class_name": "Ones", "config": {}}, "moving_mean_initializer": {"class_name": "Zeros", "config": {}}, "moving_variance_initializer": {"class_name": "Ones", "config": {}}, "beta_regularizer": null, "gamma_regularizer": null, "beta_constraint": null, "gamma_constraint": null}, "name": "conv3_block4_preact_bn", "inbound_nodes": [[["conv3_block3_out", 0, 0, {}]]]}, {"class_name": "Activation", "config": {"name": "conv3_block4_preact_relu", "trainable": false, "dtype": "float32", "activation": "relu"}, "name": "conv3_block4_preact_relu", "inbound_nodes": [[["conv3_block4_preact_bn", 0, 0, {}]]]}, {"class_name": "Conv2D", "config": {"name": "conv3_block4_1_conv", "trainable": false, "dtype": "float32", "filters": 128, "kernel_size": [1, 1], "strides": [1, 1], "padding": "valid", "data_format": "channels_last", "dilation_rate": [1, 1], "groups": 1, "activation": "linear", "use_bias": false, "kernel_initializer": {"class_name": "GlorotUniform", "config": {"seed": null}}, "bias_initializer": {"class_name": "Zeros", "config": {}}, "kernel_regularizer": null, "bias_regularizer": null, "activity_regularizer": null, "kernel_constraint": null, "bias_constraint": null}, "name": "conv3_block4_1_conv", "inbound_nodes": [[["conv3_block4_preact_relu", 0, 0, {}]]]}, {"class_name": "BatchNormalization", "config": {"name": "conv3_block4_1_bn", "trainable": false, "dtype": "float32", "axis": [3], "momentum": 0.99, "epsilon": 1.001e-05, "center": true, "scale": true, "beta_initializer": {"class_name": "Zeros", "config": {}}, "gamma_initializer": {"class_name": "Ones", "config": {}}, "moving_mean_initializer": {"class_name": "Zeros", "config": {}}, "moving_variance_initializer": {"class_name": "Ones", "config": {}}, "beta_regularizer": null, "gamma_regularizer": null, "beta_constraint": null, "gamma_constraint": null}, "name": "conv3_block4_1_bn", "inbound_nodes": [[["conv3_block4_1_conv", 0, 0, {}]]]}, {"class_name": "Activation", "config": {"name": "conv3_block4_1_relu", "trainable": false, "dtype": "float32", "activation": "relu"}, "name": "conv3_block4_1_relu", "inbound_nodes": [[["conv3_block4_1_bn", 0, 0, {}]]]}, {"class_name": "ZeroPadding2D", "config": {"name": "conv3_block4_2_pad", "trainable": false, "dtype": "float32", "padding": [[1, 1], [1, 1]], "data_format": "channels_last"}, "name": "conv3_block4_2_pad", "inbound_nodes": [[["conv3_block4_1_relu", 0, 0, {}]]]}, {"class_name": "Conv2D", "config": {"name": "conv3_block4_2_conv", "trainable": false, "dtype": "float32", "filters": 128, "kernel_size": [3, 3], "strides": [2, 2], "padding": "valid", "data_format": "channels_last", "dilation_rate": [1, 1], "groups": 1, "activation": "linear", "use_bias": false, "kernel_initializer": {"class_name": "GlorotUniform", "config": {"seed": null}}, "bias_initializer": {"class_name": "Zeros", "config": {}}, "kernel_regularizer": null, "bias_regularizer": null, "activity_regularizer": null, "kernel_constraint": null, "bias_constraint": null}, "name": "conv3_block4_2_conv", "inbound_nodes": [[["conv3_block4_2_pad", 0, 0, {}]]]}, {"class_name": "BatchNormalization", "config": {"name": "conv3_block4_2_bn", "trainable": false, "dtype": "float32", "axis": [3], "momentum": 0.99, "epsilon": 1.001e-05, "center": true, "scale": true, "beta_initializer": {"class_name": "Zeros", "config": {}}, "gamma_initializer": {"class_name": "Ones", "config": {}}, "moving_mean_initializer": {"class_name": "Zeros", "config": {}}, "moving_variance_initializer": {"class_name": "Ones", "config": {}}, "beta_regularizer": null, "gamma_regularizer": null, "beta_constraint": null, "gamma_constraint": null}, "name": "conv3_block4_2_bn", "inbound_nodes": [[["conv3_block4_2_conv", 0, 0, {}]]]}, {"class_name": "Activation", "config": {"name": "conv3_block4_2_relu", "trainable": false, "dtype": "float32", "activation": "relu"}, "name": "conv3_block4_2_relu", "inbound_nodes": [[["conv3_block4_2_bn", 0, 0, {}]]]}, {"class_name": "MaxPooling2D", "config": {"name": "max_pooling2d_1", "trainable": false, "dtype": "float32", "pool_size": [1, 1], "padding": "valid", "strides": [2, 2], "data_format": "channels_last"}, "name": "max_pooling2d_1", "inbound_nodes": [[["conv3_block3_out", 0, 0, {}]]]}, {"class_name": "Conv2D", "config": {"name": "conv3_block4_3_conv", "trainable": false, "dtype": "float32", "filters": 512, "kernel_size": [1, 1], "strides": [1, 1], "padding": "valid", "data_format": "channels_last", "dilation_rate": [1, 1], "groups": 1, "activation": "linear", "use_bias": true, "kernel_initializer": {"class_name": "GlorotUniform", "config": {"seed": null}}, "bias_initializer": {"class_name": "Zeros", "config": {}}, "kernel_regularizer": null, "bias_regularizer": null, "activity_regularizer": null, "kernel_constraint": null, "bias_constraint": null}, "name": "conv3_block4_3_conv", "inbound_nodes": [[["conv3_block4_2_relu", 0, 0, {}]]]}, {"class_name": "Add", "config": {"name": "conv3_block4_out", "trainable": false, "dtype": "float32"}, "name": "conv3_block4_out", "inbound_nodes": [[["max_pooling2d_1", 0, 0, {}], ["conv3_block4_3_conv", 0, 0, {}]]]}, {"class_name": "BatchNormalization", "config": {"name": "conv4_block1_preact_bn", "trainable": false, "dtype": "float32", "axis": [3], "momentum": 0.99, "epsilon": 1.001e-05, "center": true, "scale": true, "beta_initializer": {"class_name": "Zeros", "config": {}}, "gamma_initializer": {"class_name": "Ones", "config": {}}, "moving_mean_initializer": {"class_name": "Zeros", "config": {}}, "moving_variance_initializer": {"class_name": "Ones", "config": {}}, "beta_regularizer": null, "gamma_regularizer": null, "beta_constraint": null, "gamma_constraint": null}, "name": "conv4_block1_preact_bn", "inbound_nodes": [[["conv3_block4_out", 0, 0, {}]]]}, {"class_name": "Activation", "config": {"name": "conv4_block1_preact_relu", "trainable": false, "dtype": "float32", "activation": "relu"}, "name": "conv4_block1_preact_relu", "inbound_nodes": [[["conv4_block1_preact_bn", 0, 0, {}]]]}, {"class_name": "Conv2D", "config": {"name": "conv4_block1_1_conv", "trainable": false, "dtype": "float32", "filters": 256, "kernel_size": [1, 1], "strides": [1, 1], "padding": "valid", "data_format": "channels_last", "dilation_rate": [1, 1], "groups": 1, "activation": "linear", "use_bias": false, "kernel_initializer": {"class_name": "GlorotUniform", "config": {"seed": null}}, "bias_initializer": {"class_name": "Zeros", "config": {}}, "kernel_regularizer": null, "bias_regularizer": null, "activity_regularizer": null, "kernel_constraint": null, "bias_constraint": null}, "name": "conv4_block1_1_conv", "inbound_nodes": [[["conv4_block1_preact_relu", 0, 0, {}]]]}, {"class_name": "BatchNormalization", "config": {"name": "conv4_block1_1_bn", "trainable": false, "dtype": "float32", "axis": [3], "momentum": 0.99, "epsilon": 1.001e-05, "center": true, "scale": true, "beta_initializer": {"class_name": "Zeros", "config": {}}, "gamma_initializer": {"class_name": "Ones", "config": {}}, "moving_mean_initializer": {"class_name": "Zeros", "config": {}}, "moving_variance_initializer": {"class_name": "Ones", "config": {}}, "beta_regularizer": null, "gamma_regularizer": null, "beta_constraint": null, "gamma_constraint": null}, "name": "conv4_block1_1_bn", "inbound_nodes": [[["conv4_block1_1_conv", 0, 0, {}]]]}, {"class_name": "Activation", "config": {"name": "conv4_block1_1_relu", "trainable": false, "dtype": "float32", "activation": "relu"}, "name": "conv4_block1_1_relu", "inbound_nodes": [[["conv4_block1_1_bn", 0, 0, {}]]]}, {"class_name": "ZeroPadding2D", "config": {"name": "conv4_block1_2_pad", "trainable": false, "dtype": "float32", "padding": [[1, 1], [1, 1]], "data_format": "channels_last"}, "name": "conv4_block1_2_pad", "inbound_nodes": [[["conv4_block1_1_relu", 0, 0, {}]]]}, {"class_name": "Conv2D", "config": {"name": "conv4_block1_2_conv", "trainable": false, "dtype": "float32", "filters": 256, "kernel_size": [3, 3], "strides": [1, 1], "padding": "valid", "data_format": "channels_last", "dilation_rate": [1, 1], "groups": 1, "activation": "linear", "use_bias": false, "kernel_initializer": {"class_name": "GlorotUniform", "config": {"seed": null}}, "bias_initializer": {"class_name": "Zeros", "config": {}}, "kernel_regularizer": null, "bias_regularizer": null, "activity_regularizer": null, "kernel_constraint": null, "bias_constraint": null}, "name": "conv4_block1_2_conv", "inbound_nodes": [[["conv4_block1_2_pad", 0, 0, {}]]]}, {"class_name": "BatchNormalization", "config": {"name": "conv4_block1_2_bn", "trainable": false, "dtype": "float32", "axis": [3], "momentum": 0.99, "epsilon": 1.001e-05, "center": true, "scale": true, "beta_initializer": {"class_name": "Zeros", "config": {}}, "gamma_initializer": {"class_name": "Ones", "config": {}}, "moving_mean_initializer": {"class_name": "Zeros", "config": {}}, "moving_variance_initializer": {"class_name": "Ones", "config": {}}, "beta_regularizer": null, "gamma_regularizer": null, "beta_constraint": null, "gamma_constraint": null}, "name": "conv4_block1_2_bn", "inbound_nodes": [[["conv4_block1_2_conv", 0, 0, {}]]]}, {"class_name": "Activation", "config": {"name": "conv4_block1_2_relu", "trainable": false, "dtype": "float32", "activation": "relu"}, "name": "conv4_block1_2_relu", "inbound_nodes": [[["conv4_block1_2_bn", 0, 0, {}]]]}, {"class_name": "Conv2D", "config": {"name": "conv4_block1_0_conv", "trainable": false, "dtype": "float32", "filters": 1024, "kernel_size": [1, 1], "strides": [1, 1], "padding": "valid", "data_format": "channels_last", "dilation_rate": [1, 1], "groups": 1, "activation": "linear", "use_bias": true, "kernel_initializer": {"class_name": "GlorotUniform", "config": {"seed": null}}, "bias_initializer": {"class_name": "Zeros", "config": {}}, "kernel_regularizer": null, "bias_regularizer": null, "activity_regularizer": null, "kernel_constraint": null, "bias_constraint": null}, "name": "conv4_block1_0_conv", "inbound_nodes": [[["conv4_block1_preact_relu", 0, 0, {}]]]}, {"class_name": "Conv2D", "config": {"name": "conv4_block1_3_conv", "trainable": false, "dtype": "float32", "filters": 1024, "kernel_size": [1, 1], "strides": [1, 1], "padding": "valid", "data_format": "channels_last", "dilation_rate": [1, 1], "groups": 1, "activation": "linear", "use_bias": true, "kernel_initializer": {"class_name": "GlorotUniform", "config": {"seed": null}}, "bias_initializer": {"class_name": "Zeros", "config": {}}, "kernel_regularizer": null, "bias_regularizer": null, "activity_regularizer": null, "kernel_constraint": null, "bias_constraint": null}, "name": "conv4_block1_3_conv", "inbound_nodes": [[["conv4_block1_2_relu", 0, 0, {}]]]}, {"class_name": "Add", "config": {"name": "conv4_block1_out", "trainable": false, "dtype": "float32"}, "name": "conv4_block1_out", "inbound_nodes": [[["conv4_block1_0_conv", 0, 0, {}], ["conv4_block1_3_conv", 0, 0, {}]]]}, {"class_name": "BatchNormalization", "config": {"name": "conv4_block2_preact_bn", "trainable": false, "dtype": "float32", "axis": [3], "momentum": 0.99, "epsilon": 1.001e-05, "center": true, "scale": true, "beta_initializer": {"class_name": "Zeros", "config": {}}, "gamma_initializer": {"class_name": "Ones", "config": {}}, "moving_mean_initializer": {"class_name": "Zeros", "config": {}}, "moving_variance_initializer": {"class_name": "Ones", "config": {}}, "beta_regularizer": null, "gamma_regularizer": null, "beta_constraint": null, "gamma_constraint": null}, "name": "conv4_block2_preact_bn", "inbound_nodes": [[["conv4_block1_out", 0, 0, {}]]]}, {"class_name": "Activation", "config": {"name": "conv4_block2_preact_relu", "trainable": false, "dtype": "float32", "activation": "relu"}, "name": "conv4_block2_preact_relu", "inbound_nodes": [[["conv4_block2_preact_bn", 0, 0, {}]]]}, {"class_name": "Conv2D", "config": {"name": "conv4_block2_1_conv", "trainable": false, "dtype": "float32", "filters": 256, "kernel_size": [1, 1], "strides": [1, 1], "padding": "valid", "data_format": "channels_last", "dilation_rate": [1, 1], "groups": 1, "activation": "linear", "use_bias": false, "kernel_initializer": {"class_name": "GlorotUniform", "config": {"seed": null}}, "bias_initializer": {"class_name": "Zeros", "config": {}}, "kernel_regularizer": null, "bias_regularizer": null, "activity_regularizer": null, "kernel_constraint": null, "bias_constraint": null}, "name": "conv4_block2_1_conv", "inbound_nodes": [[["conv4_block2_preact_relu", 0, 0, {}]]]}, {"class_name": "BatchNormalization", "config": {"name": "conv4_block2_1_bn", "trainable": false, "dtype": "float32", "axis": [3], "momentum": 0.99, "epsilon": 1.001e-05, "center": true, "scale": true, "beta_initializer": {"class_name": "Zeros", "config": {}}, "gamma_initializer": {"class_name": "Ones", "config": {}}, "moving_mean_initializer": {"class_name": "Zeros", "config": {}}, "moving_variance_initializer": {"class_name": "Ones", "config": {}}, "beta_regularizer": null, "gamma_regularizer": null, "beta_constraint": null, "gamma_constraint": null}, "name": "conv4_block2_1_bn", "inbound_nodes": [[["conv4_block2_1_conv", 0, 0, {}]]]}, {"class_name": "Activation", "config": {"name": "conv4_block2_1_relu", "trainable": false, "dtype": "float32", "activation": "relu"}, "name": "conv4_block2_1_relu", "inbound_nodes": [[["conv4_block2_1_bn", 0, 0, {}]]]}, {"class_name": "ZeroPadding2D", "config": {"name": "conv4_block2_2_pad", "trainable": false, "dtype": "float32", "padding": [[1, 1], [1, 1]], "data_format": "channels_last"}, "name": "conv4_block2_2_pad", "inbound_nodes": [[["conv4_block2_1_relu", 0, 0, {}]]]}, {"class_name": "Conv2D", "config": {"name": "conv4_block2_2_conv", "trainable": false, "dtype": "float32", "filters": 256, "kernel_size": [3, 3], "strides": [1, 1], "padding": "valid", "data_format": "channels_last", "dilation_rate": [1, 1], "groups": 1, "activation": "linear", "use_bias": false, "kernel_initializer": {"class_name": "GlorotUniform", "config": {"seed": null}}, "bias_initializer": {"class_name": "Zeros", "config": {}}, "kernel_regularizer": null, "bias_regularizer": null, "activity_regularizer": null, "kernel_constraint": null, "bias_constraint": null}, "name": "conv4_block2_2_conv", "inbound_nodes": [[["conv4_block2_2_pad", 0, 0, {}]]]}, {"class_name": "BatchNormalization", "config": {"name": "conv4_block2_2_bn", "trainable": false, "dtype": "float32", "axis": [3], "momentum": 0.99, "epsilon": 1.001e-05, "center": true, "scale": true, "beta_initializer": {"class_name": "Zeros", "config": {}}, "gamma_initializer": {"class_name": "Ones", "config": {}}, "moving_mean_initializer": {"class_name": "Zeros", "config": {}}, "moving_variance_initializer": {"class_name": "Ones", "config": {}}, "beta_regularizer": null, "gamma_regularizer": null, "beta_constraint": null, "gamma_constraint": null}, "name": "conv4_block2_2_bn", "inbound_nodes": [[["conv4_block2_2_conv", 0, 0, {}]]]}, {"class_name": "Activation", "config": {"name": "conv4_block2_2_relu", "trainable": false, "dtype": "float32", "activation": "relu"}, "name": "conv4_block2_2_relu", "inbound_nodes": [[["conv4_block2_2_bn", 0, 0, {}]]]}, {"class_name": "Conv2D", "config": {"name": "conv4_block2_3_conv", "trainable": false, "dtype": "float32", "filters": 1024, "kernel_size": [1, 1], "strides": [1, 1], "padding": "valid", "data_format": "channels_last", "dilation_rate": [1, 1], "groups": 1, "activation": "linear", "use_bias": true, "kernel_initializer": {"class_name": "GlorotUniform", "config": {"seed": null}}, "bias_initializer": {"class_name": "Zeros", "config": {}}, "kernel_regularizer": null, "bias_regularizer": null, "activity_regularizer": null, "kernel_constraint": null, "bias_constraint": null}, "name": "conv4_block2_3_conv", "inbound_nodes": [[["conv4_block2_2_relu", 0, 0, {}]]]}, {"class_name": "Add", "config": {"name": "conv4_block2_out", "trainable": false, "dtype": "float32"}, "name": "conv4_block2_out", "inbound_nodes": [[["conv4_block1_out", 0, 0, {}], ["conv4_block2_3_conv", 0, 0, {}]]]}, {"class_name": "BatchNormalization", "config": {"name": "conv4_block3_preact_bn", "trainable": false, "dtype": "float32", "axis": [3], "momentum": 0.99, "epsilon": 1.001e-05, "center": true, "scale": true, "beta_initializer": {"class_name": "Zeros", "config": {}}, "gamma_initializer": {"class_name": "Ones", "config": {}}, "moving_mean_initializer": {"class_name": "Zeros", "config": {}}, "moving_variance_initializer": {"class_name": "Ones", "config": {}}, "beta_regularizer": null, "gamma_regularizer": null, "beta_constraint": null, "gamma_constraint": null}, "name": "conv4_block3_preact_bn", "inbound_nodes": [[["conv4_block2_out", 0, 0, {}]]]}, {"class_name": "Activation", "config": {"name": "conv4_block3_preact_relu", "trainable": false, "dtype": "float32", "activation": "relu"}, "name": "conv4_block3_preact_relu", "inbound_nodes": [[["conv4_block3_preact_bn", 0, 0, {}]]]}, {"class_name": "Conv2D", "config": {"name": "conv4_block3_1_conv", "trainable": false, "dtype": "float32", "filters": 256, "kernel_size": [1, 1], "strides": [1, 1], "padding": "valid", "data_format": "channels_last", "dilation_rate": [1, 1], "groups": 1, "activation": "linear", "use_bias": false, "kernel_initializer": {"class_name": "GlorotUniform", "config": {"seed": null}}, "bias_initializer": {"class_name": "Zeros", "config": {}}, "kernel_regularizer": null, "bias_regularizer": null, "activity_regularizer": null, "kernel_constraint": null, "bias_constraint": null}, "name": "conv4_block3_1_conv", "inbound_nodes": [[["conv4_block3_preact_relu", 0, 0, {}]]]}, {"class_name": "BatchNormalization", "config": {"name": "conv4_block3_1_bn", "trainable": false, "dtype": "float32", "axis": [3], "momentum": 0.99, "epsilon": 1.001e-05, "center": true, "scale": true, "beta_initializer": {"class_name": "Zeros", "config": {}}, "gamma_initializer": {"class_name": "Ones", "config": {}}, "moving_mean_initializer": {"class_name": "Zeros", "config": {}}, "moving_variance_initializer": {"class_name": "Ones", "config": {}}, "beta_regularizer": null, "gamma_regularizer": null, "beta_constraint": null, "gamma_constraint": null}, "name": "conv4_block3_1_bn", "inbound_nodes": [[["conv4_block3_1_conv", 0, 0, {}]]]}, {"class_name": "Activation", "config": {"name": "conv4_block3_1_relu", "trainable": false, "dtype": "float32", "activation": "relu"}, "name": "conv4_block3_1_relu", "inbound_nodes": [[["conv4_block3_1_bn", 0, 0, {}]]]}, {"class_name": "ZeroPadding2D", "config": {"name": "conv4_block3_2_pad", "trainable": false, "dtype": "float32", "padding": [[1, 1], [1, 1]], "data_format": "channels_last"}, "name": "conv4_block3_2_pad", "inbound_nodes": [[["conv4_block3_1_relu", 0, 0, {}]]]}, {"class_name": "Conv2D", "config": {"name": "conv4_block3_2_conv", "trainable": false, "dtype": "float32", "filters": 256, "kernel_size": [3, 3], "strides": [1, 1], "padding": "valid", "data_format": "channels_last", "dilation_rate": [1, 1], "groups": 1, "activation": "linear", "use_bias": false, "kernel_initializer": {"class_name": "GlorotUniform", "config": {"seed": null}}, "bias_initializer": {"class_name": "Zeros", "config": {}}, "kernel_regularizer": null, "bias_regularizer": null, "activity_regularizer": null, "kernel_constraint": null, "bias_constraint": null}, "name": "conv4_block3_2_conv", "inbound_nodes": [[["conv4_block3_2_pad", 0, 0, {}]]]}, {"class_name": "BatchNormalization", "config": {"name": "conv4_block3_2_bn", "trainable": false, "dtype": "float32", "axis": [3], "momentum": 0.99, "epsilon": 1.001e-05, "center": true, "scale": true, "beta_initializer": {"class_name": "Zeros", "config": {}}, "gamma_initializer": {"class_name": "Ones", "config": {}}, "moving_mean_initializer": {"class_name": "Zeros", "config": {}}, "moving_variance_initializer": {"class_name": "Ones", "config": {}}, "beta_regularizer": null, "gamma_regularizer": null, "beta_constraint": null, "gamma_constraint": null}, "name": "conv4_block3_2_bn", "inbound_nodes": [[["conv4_block3_2_conv", 0, 0, {}]]]}, {"class_name": "Activation", "config": {"name": "conv4_block3_2_relu", "trainable": false, "dtype": "float32", "activation": "relu"}, "name": "conv4_block3_2_relu", "inbound_nodes": [[["conv4_block3_2_bn", 0, 0, {}]]]}, {"class_name": "Conv2D", "config": {"name": "conv4_block3_3_conv", "trainable": false, "dtype": "float32", "filters": 1024, "kernel_size": [1, 1], "strides": [1, 1], "padding": "valid", "data_format": "channels_last", "dilation_rate": [1, 1], "groups": 1, "activation": "linear", "use_bias": true, "kernel_initializer": {"class_name": "GlorotUniform", "config": {"seed": null}}, "bias_initializer": {"class_name": "Zeros", "config": {}}, "kernel_regularizer": null, "bias_regularizer": null, "activity_regularizer": null, "kernel_constraint": null, "bias_constraint": null}, "name": "conv4_block3_3_conv", "inbound_nodes": [[["conv4_block3_2_relu", 0, 0, {}]]]}, {"class_name": "Add", "config": {"name": "conv4_block3_out", "trainable": false, "dtype": "float32"}, "name": "conv4_block3_out", "inbound_nodes": [[["conv4_block2_out", 0, 0, {}], ["conv4_block3_3_conv", 0, 0, {}]]]}, {"class_name": "BatchNormalization", "config": {"name": "conv4_block4_preact_bn", "trainable": false, "dtype": "float32", "axis": [3], "momentum": 0.99, "epsilon": 1.001e-05, "center": true, "scale": true, "beta_initializer": {"class_name": "Zeros", "config": {}}, "gamma_initializer": {"class_name": "Ones", "config": {}}, "moving_mean_initializer": {"class_name": "Zeros", "config": {}}, "moving_variance_initializer": {"class_name": "Ones", "config": {}}, "beta_regularizer": null, "gamma_regularizer": null, "beta_constraint": null, "gamma_constraint": null}, "name": "conv4_block4_preact_bn", "inbound_nodes": [[["conv4_block3_out", 0, 0, {}]]]}, {"class_name": "Activation", "config": {"name": "conv4_block4_preact_relu", "trainable": false, "dtype": "float32", "activation": "relu"}, "name": "conv4_block4_preact_relu", "inbound_nodes": [[["conv4_block4_preact_bn", 0, 0, {}]]]}, {"class_name": "Conv2D", "config": {"name": "conv4_block4_1_conv", "trainable": false, "dtype": "float32", "filters": 256, "kernel_size": [1, 1], "strides": [1, 1], "padding": "valid", "data_format": "channels_last", "dilation_rate": [1, 1], "groups": 1, "activation": "linear", "use_bias": false, "kernel_initializer": {"class_name": "GlorotUniform", "config": {"seed": null}}, "bias_initializer": {"class_name": "Zeros", "config": {}}, "kernel_regularizer": null, "bias_regularizer": null, "activity_regularizer": null, "kernel_constraint": null, "bias_constraint": null}, "name": "conv4_block4_1_conv", "inbound_nodes": [[["conv4_block4_preact_relu", 0, 0, {}]]]}, {"class_name": "BatchNormalization", "config": {"name": "conv4_block4_1_bn", "trainable": false, "dtype": "float32", "axis": [3], "momentum": 0.99, "epsilon": 1.001e-05, "center": true, "scale": true, "beta_initializer": {"class_name": "Zeros", "config": {}}, "gamma_initializer": {"class_name": "Ones", "config": {}}, "moving_mean_initializer": {"class_name": "Zeros", "config": {}}, "moving_variance_initializer": {"class_name": "Ones", "config": {}}, "beta_regularizer": null, "gamma_regularizer": null, "beta_constraint": null, "gamma_constraint": null}, "name": "conv4_block4_1_bn", "inbound_nodes": [[["conv4_block4_1_conv", 0, 0, {}]]]}, {"class_name": "Activation", "config": {"name": "conv4_block4_1_relu", "trainable": false, "dtype": "float32", "activation": "relu"}, "name": "conv4_block4_1_relu", "inbound_nodes": [[["conv4_block4_1_bn", 0, 0, {}]]]}, {"class_name": "ZeroPadding2D", "config": {"name": "conv4_block4_2_pad", "trainable": false, "dtype": "float32", "padding": [[1, 1], [1, 1]], "data_format": "channels_last"}, "name": "conv4_block4_2_pad", "inbound_nodes": [[["conv4_block4_1_relu", 0, 0, {}]]]}, {"class_name": "Conv2D", "config": {"name": "conv4_block4_2_conv", "trainable": false, "dtype": "float32", "filters": 256, "kernel_size": [3, 3], "strides": [1, 1], "padding": "valid", "data_format": "channels_last", "dilation_rate": [1, 1], "groups": 1, "activation": "linear", "use_bias": false, "kernel_initializer": {"class_name": "GlorotUniform", "config": {"seed": null}}, "bias_initializer": {"class_name": "Zeros", "config": {}}, "kernel_regularizer": null, "bias_regularizer": null, "activity_regularizer": null, "kernel_constraint": null, "bias_constraint": null}, "name": "conv4_block4_2_conv", "inbound_nodes": [[["conv4_block4_2_pad", 0, 0, {}]]]}, {"class_name": "BatchNormalization", "config": {"name": "conv4_block4_2_bn", "trainable": false, "dtype": "float32", "axis": [3], "momentum": 0.99, "epsilon": 1.001e-05, "center": true, "scale": true, "beta_initializer": {"class_name": "Zeros", "config": {}}, "gamma_initializer": {"class_name": "Ones", "config": {}}, "moving_mean_initializer": {"class_name": "Zeros", "config": {}}, "moving_variance_initializer": {"class_name": "Ones", "config": {}}, "beta_regularizer": null, "gamma_regularizer": null, "beta_constraint": null, "gamma_constraint": null}, "name": "conv4_block4_2_bn", "inbound_nodes": [[["conv4_block4_2_conv", 0, 0, {}]]]}, {"class_name": "Activation", "config": {"name": "conv4_block4_2_relu", "trainable": false, "dtype": "float32", "activation": "relu"}, "name": "conv4_block4_2_relu", "inbound_nodes": [[["conv4_block4_2_bn", 0, 0, {}]]]}, {"class_name": "Conv2D", "config": {"name": "conv4_block4_3_conv", "trainable": false, "dtype": "float32", "filters": 1024, "kernel_size": [1, 1], "strides": [1, 1], "padding": "valid", "data_format": "channels_last", "dilation_rate": [1, 1], "groups": 1, "activation": "linear", "use_bias": true, "kernel_initializer": {"class_name": "GlorotUniform", "config": {"seed": null}}, "bias_initializer": {"class_name": "Zeros", "config": {}}, "kernel_regularizer": null, "bias_regularizer": null, "activity_regularizer": null, "kernel_constraint": null, "bias_constraint": null}, "name": "conv4_block4_3_conv", "inbound_nodes": [[["conv4_block4_2_relu", 0, 0, {}]]]}, {"class_name": "Add", "config": {"name": "conv4_block4_out", "trainable": false, "dtype": "float32"}, "name": "conv4_block4_out", "inbound_nodes": [[["conv4_block3_out", 0, 0, {}], ["conv4_block4_3_conv", 0, 0, {}]]]}, {"class_name": "BatchNormalization", "config": {"name": "conv4_block5_preact_bn", "trainable": false, "dtype": "float32", "axis": [3], "momentum": 0.99, "epsilon": 1.001e-05, "center": true, "scale": true, "beta_initializer": {"class_name": "Zeros", "config": {}}, "gamma_initializer": {"class_name": "Ones", "config": {}}, "moving_mean_initializer": {"class_name": "Zeros", "config": {}}, "moving_variance_initializer": {"class_name": "Ones", "config": {}}, "beta_regularizer": null, "gamma_regularizer": null, "beta_constraint": null, "gamma_constraint": null}, "name": "conv4_block5_preact_bn", "inbound_nodes": [[["conv4_block4_out", 0, 0, {}]]]}, {"class_name": "Activation", "config": {"name": "conv4_block5_preact_relu", "trainable": false, "dtype": "float32", "activation": "relu"}, "name": "conv4_block5_preact_relu", "inbound_nodes": [[["conv4_block5_preact_bn", 0, 0, {}]]]}, {"class_name": "Conv2D", "config": {"name": "conv4_block5_1_conv", "trainable": false, "dtype": "float32", "filters": 256, "kernel_size": [1, 1], "strides": [1, 1], "padding": "valid", "data_format": "channels_last", "dilation_rate": [1, 1], "groups": 1, "activation": "linear", "use_bias": false, "kernel_initializer": {"class_name": "GlorotUniform", "config": {"seed": null}}, "bias_initializer": {"class_name": "Zeros", "config": {}}, "kernel_regularizer": null, "bias_regularizer": null, "activity_regularizer": null, "kernel_constraint": null, "bias_constraint": null}, "name": "conv4_block5_1_conv", "inbound_nodes": [[["conv4_block5_preact_relu", 0, 0, {}]]]}, {"class_name": "BatchNormalization", "config": {"name": "conv4_block5_1_bn", "trainable": false, "dtype": "float32", "axis": [3], "momentum": 0.99, "epsilon": 1.001e-05, "center": true, "scale": true, "beta_initializer": {"class_name": "Zeros", "config": {}}, "gamma_initializer": {"class_name": "Ones", "config": {}}, "moving_mean_initializer": {"class_name": "Zeros", "config": {}}, "moving_variance_initializer": {"class_name": "Ones", "config": {}}, "beta_regularizer": null, "gamma_regularizer": null, "beta_constraint": null, "gamma_constraint": null}, "name": "conv4_block5_1_bn", "inbound_nodes": [[["conv4_block5_1_conv", 0, 0, {}]]]}, {"class_name": "Activation", "config": {"name": "conv4_block5_1_relu", "trainable": false, "dtype": "float32", "activation": "relu"}, "name": "conv4_block5_1_relu", "inbound_nodes": [[["conv4_block5_1_bn", 0, 0, {}]]]}, {"class_name": "ZeroPadding2D", "config": {"name": "conv4_block5_2_pad", "trainable": false, "dtype": "float32", "padding": [[1, 1], [1, 1]], "data_format": "channels_last"}, "name": "conv4_block5_2_pad", "inbound_nodes": [[["conv4_block5_1_relu", 0, 0, {}]]]}, {"class_name": "Conv2D", "config": {"name": "conv4_block5_2_conv", "trainable": false, "dtype": "float32", "filters": 256, "kernel_size": [3, 3], "strides": [1, 1], "padding": "valid", "data_format": "channels_last", "dilation_rate": [1, 1], "groups": 1, "activation": "linear", "use_bias": false, "kernel_initializer": {"class_name": "GlorotUniform", "config": {"seed": null}}, "bias_initializer": {"class_name": "Zeros", "config": {}}, "kernel_regularizer": null, "bias_regularizer": null, "activity_regularizer": null, "kernel_constraint": null, "bias_constraint": null}, "name": "conv4_block5_2_conv", "inbound_nodes": [[["conv4_block5_2_pad", 0, 0, {}]]]}, {"class_name": "BatchNormalization", "config": {"name": "conv4_block5_2_bn", "trainable": false, "dtype": "float32", "axis": [3], "momentum": 0.99, "epsilon": 1.001e-05, "center": true, "scale": true, "beta_initializer": {"class_name": "Zeros", "config": {}}, "gamma_initializer": {"class_name": "Ones", "config": {}}, "moving_mean_initializer": {"class_name": "Zeros", "config": {}}, "moving_variance_initializer": {"class_name": "Ones", "config": {}}, "beta_regularizer": null, "gamma_regularizer": null, "beta_constraint": null, "gamma_constraint": null}, "name": "conv4_block5_2_bn", "inbound_nodes": [[["conv4_block5_2_conv", 0, 0, {}]]]}, {"class_name": "Activation", "config": {"name": "conv4_block5_2_relu", "trainable": false, "dtype": "float32", "activation": "relu"}, "name": "conv4_block5_2_relu", "inbound_nodes": [[["conv4_block5_2_bn", 0, 0, {}]]]}, {"class_name": "Conv2D", "config": {"name": "conv4_block5_3_conv", "trainable": false, "dtype": "float32", "filters": 1024, "kernel_size": [1, 1], "strides": [1, 1], "padding": "valid", "data_format": "channels_last", "dilation_rate": [1, 1], "groups": 1, "activation": "linear", "use_bias": true, "kernel_initializer": {"class_name": "GlorotUniform", "config": {"seed": null}}, "bias_initializer": {"class_name": "Zeros", "config": {}}, "kernel_regularizer": null, "bias_regularizer": null, "activity_regularizer": null, "kernel_constraint": null, "bias_constraint": null}, "name": "conv4_block5_3_conv", "inbound_nodes": [[["conv4_block5_2_relu", 0, 0, {}]]]}, {"class_name": "Add", "config": {"name": "conv4_block5_out", "trainable": false, "dtype": "float32"}, "name": "conv4_block5_out", "inbound_nodes": [[["conv4_block4_out", 0, 0, {}], ["conv4_block5_3_conv", 0, 0, {}]]]}, {"class_name": "BatchNormalization", "config": {"name": "conv4_block6_preact_bn", "trainable": false, "dtype": "float32", "axis": [3], "momentum": 0.99, "epsilon": 1.001e-05, "center": true, "scale": true, "beta_initializer": {"class_name": "Zeros", "config": {}}, "gamma_initializer": {"class_name": "Ones", "config": {}}, "moving_mean_initializer": {"class_name": "Zeros", "config": {}}, "moving_variance_initializer": {"class_name": "Ones", "config": {}}, "beta_regularizer": null, "gamma_regularizer": null, "beta_constraint": null, "gamma_constraint": null}, "name": "conv4_block6_preact_bn", "inbound_nodes": [[["conv4_block5_out", 0, 0, {}]]]}, {"class_name": "Activation", "config": {"name": "conv4_block6_preact_relu", "trainable": false, "dtype": "float32", "activation": "relu"}, "name": "conv4_block6_preact_relu", "inbound_nodes": [[["conv4_block6_preact_bn", 0, 0, {}]]]}, {"class_name": "Conv2D", "config": {"name": "conv4_block6_1_conv", "trainable": false, "dtype": "float32", "filters": 256, "kernel_size": [1, 1], "strides": [1, 1], "padding": "valid", "data_format": "channels_last", "dilation_rate": [1, 1], "groups": 1, "activation": "linear", "use_bias": false, "kernel_initializer": {"class_name": "GlorotUniform", "config": {"seed": null}}, "bias_initializer": {"class_name": "Zeros", "config": {}}, "kernel_regularizer": null, "bias_regularizer": null, "activity_regularizer": null, "kernel_constraint": null, "bias_constraint": null}, "name": "conv4_block6_1_conv", "inbound_nodes": [[["conv4_block6_preact_relu", 0, 0, {}]]]}, {"class_name": "BatchNormalization", "config": {"name": "conv4_block6_1_bn", "trainable": false, "dtype": "float32", "axis": [3], "momentum": 0.99, "epsilon": 1.001e-05, "center": true, "scale": true, "beta_initializer": {"class_name": "Zeros", "config": {}}, "gamma_initializer": {"class_name": "Ones", "config": {}}, "moving_mean_initializer": {"class_name": "Zeros", "config": {}}, "moving_variance_initializer": {"class_name": "Ones", "config": {}}, "beta_regularizer": null, "gamma_regularizer": null, "beta_constraint": null, "gamma_constraint": null}, "name": "conv4_block6_1_bn", "inbound_nodes": [[["conv4_block6_1_conv", 0, 0, {}]]]}, {"class_name": "Activation", "config": {"name": "conv4_block6_1_relu", "trainable": false, "dtype": "float32", "activation": "relu"}, "name": "conv4_block6_1_relu", "inbound_nodes": [[["conv4_block6_1_bn", 0, 0, {}]]]}, {"class_name": "ZeroPadding2D", "config": {"name": "conv4_block6_2_pad", "trainable": false, "dtype": "float32", "padding": [[1, 1], [1, 1]], "data_format": "channels_last"}, "name": "conv4_block6_2_pad", "inbound_nodes": [[["conv4_block6_1_relu", 0, 0, {}]]]}, {"class_name": "Conv2D", "config": {"name": "conv4_block6_2_conv", "trainable": false, "dtype": "float32", "filters": 256, "kernel_size": [3, 3], "strides": [2, 2], "padding": "valid", "data_format": "channels_last", "dilation_rate": [1, 1], "groups": 1, "activation": "linear", "use_bias": false, "kernel_initializer": {"class_name": "GlorotUniform", "config": {"seed": null}}, "bias_initializer": {"class_name": "Zeros", "config": {}}, "kernel_regularizer": null, "bias_regularizer": null, "activity_regularizer": null, "kernel_constraint": null, "bias_constraint": null}, "name": "conv4_block6_2_conv", "inbound_nodes": [[["conv4_block6_2_pad", 0, 0, {}]]]}, {"class_name": "BatchNormalization", "config": {"name": "conv4_block6_2_bn", "trainable": false, "dtype": "float32", "axis": [3], "momentum": 0.99, "epsilon": 1.001e-05, "center": true, "scale": true, "beta_initializer": {"class_name": "Zeros", "config": {}}, "gamma_initializer": {"class_name": "Ones", "config": {}}, "moving_mean_initializer": {"class_name": "Zeros", "config": {}}, "moving_variance_initializer": {"class_name": "Ones", "config": {}}, "beta_regularizer": null, "gamma_regularizer": null, "beta_constraint": null, "gamma_constraint": null}, "name": "conv4_block6_2_bn", "inbound_nodes": [[["conv4_block6_2_conv", 0, 0, {}]]]}, {"class_name": "Activation", "config": {"name": "conv4_block6_2_relu", "trainable": false, "dtype": "float32", "activation": "relu"}, "name": "conv4_block6_2_relu", "inbound_nodes": [[["conv4_block6_2_bn", 0, 0, {}]]]}, {"class_name": "MaxPooling2D", "config": {"name": "max_pooling2d_2", "trainable": false, "dtype": "float32", "pool_size": [1, 1], "padding": "valid", "strides": [2, 2], "data_format": "channels_last"}, "name": "max_pooling2d_2", "inbound_nodes": [[["conv4_block5_out", 0, 0, {}]]]}, {"class_name": "Conv2D", "config": {"name": "conv4_block6_3_conv", "trainable": false, "dtype": "float32", "filters": 1024, "kernel_size": [1, 1], "strides": [1, 1], "padding": "valid", "data_format": "channels_last", "dilation_rate": [1, 1], "groups": 1, "activation": "linear", "use_bias": true, "kernel_initializer": {"class_name": "GlorotUniform", "config": {"seed": null}}, "bias_initializer": {"class_name": "Zeros", "config": {}}, "kernel_regularizer": null, "bias_regularizer": null, "activity_regularizer": null, "kernel_constraint": null, "bias_constraint": null}, "name": "conv4_block6_3_conv", "inbound_nodes": [[["conv4_block6_2_relu", 0, 0, {}]]]}, {"class_name": "Add", "config": {"name": "conv4_block6_out", "trainable": false, "dtype": "float32"}, "name": "conv4_block6_out", "inbound_nodes": [[["max_pooling2d_2", 0, 0, {}], ["conv4_block6_3_conv", 0, 0, {}]]]}, {"class_name": "BatchNormalization", "config": {"name": "conv5_block1_preact_bn", "trainable": false, "dtype": "float32", "axis": [3], "momentum": 0.99, "epsilon": 1.001e-05, "center": true, "scale": true, "beta_initializer": {"class_name": "Zeros", "config": {}}, "gamma_initializer": {"class_name": "Ones", "config": {}}, "moving_mean_initializer": {"class_name": "Zeros", "config": {}}, "moving_variance_initializer": {"class_name": "Ones", "config": {}}, "beta_regularizer": null, "gamma_regularizer": null, "beta_constraint": null, "gamma_constraint": null}, "name": "conv5_block1_preact_bn", "inbound_nodes": [[["conv4_block6_out", 0, 0, {}]]]}, {"class_name": "Activation", "config": {"name": "conv5_block1_preact_relu", "trainable": false, "dtype": "float32", "activation": "relu"}, "name": "conv5_block1_preact_relu", "inbound_nodes": [[["conv5_block1_preact_bn", 0, 0, {}]]]}, {"class_name": "Conv2D", "config": {"name": "conv5_block1_1_conv", "trainable": false, "dtype": "float32", "filters": 512, "kernel_size": [1, 1], "strides": [1, 1], "padding": "valid", "data_format": "channels_last", "dilation_rate": [1, 1], "groups": 1, "activation": "linear", "use_bias": false, "kernel_initializer": {"class_name": "GlorotUniform", "config": {"seed": null}}, "bias_initializer": {"class_name": "Zeros", "config": {}}, "kernel_regularizer": null, "bias_regularizer": null, "activity_regularizer": null, "kernel_constraint": null, "bias_constraint": null}, "name": "conv5_block1_1_conv", "inbound_nodes": [[["conv5_block1_preact_relu", 0, 0, {}]]]}, {"class_name": "BatchNormalization", "config": {"name": "conv5_block1_1_bn", "trainable": false, "dtype": "float32", "axis": [3], "momentum": 0.99, "epsilon": 1.001e-05, "center": true, "scale": true, "beta_initializer": {"class_name": "Zeros", "config": {}}, "gamma_initializer": {"class_name": "Ones", "config": {}}, "moving_mean_initializer": {"class_name": "Zeros", "config": {}}, "moving_variance_initializer": {"class_name": "Ones", "config": {}}, "beta_regularizer": null, "gamma_regularizer": null, "beta_constraint": null, "gamma_constraint": null}, "name": "conv5_block1_1_bn", "inbound_nodes": [[["conv5_block1_1_conv", 0, 0, {}]]]}, {"class_name": "Activation", "config": {"name": "conv5_block1_1_relu", "trainable": false, "dtype": "float32", "activation": "relu"}, "name": "conv5_block1_1_relu", "inbound_nodes": [[["conv5_block1_1_bn", 0, 0, {}]]]}, {"class_name": "ZeroPadding2D", "config": {"name": "conv5_block1_2_pad", "trainable": false, "dtype": "float32", "padding": [[1, 1], [1, 1]], "data_format": "channels_last"}, "name": "conv5_block1_2_pad", "inbound_nodes": [[["conv5_block1_1_relu", 0, 0, {}]]]}, {"class_name": "Conv2D", "config": {"name": "conv5_block1_2_conv", "trainable": false, "dtype": "float32", "filters": 512, "kernel_size": [3, 3], "strides": [1, 1], "padding": "valid", "data_format": "channels_last", "dilation_rate": [1, 1], "groups": 1, "activation": "linear", "use_bias": false, "kernel_initializer": {"class_name": "GlorotUniform", "config": {"seed": null}}, "bias_initializer": {"class_name": "Zeros", "config": {}}, "kernel_regularizer": null, "bias_regularizer": null, "activity_regularizer": null, "kernel_constraint": null, "bias_constraint": null}, "name": "conv5_block1_2_conv", "inbound_nodes": [[["conv5_block1_2_pad", 0, 0, {}]]]}, {"class_name": "BatchNormalization", "config": {"name": "conv5_block1_2_bn", "trainable": false, "dtype": "float32", "axis": [3], "momentum": 0.99, "epsilon": 1.001e-05, "center": true, "scale": true, "beta_initializer": {"class_name": "Zeros", "config": {}}, "gamma_initializer": {"class_name": "Ones", "config": {}}, "moving_mean_initializer": {"class_name": "Zeros", "config": {}}, "moving_variance_initializer": {"class_name": "Ones", "config": {}}, "beta_regularizer": null, "gamma_regularizer": null, "beta_constraint": null, "gamma_constraint": null}, "name": "conv5_block1_2_bn", "inbound_nodes": [[["conv5_block1_2_conv", 0, 0, {}]]]}, {"class_name": "Activation", "config": {"name": "conv5_block1_2_relu", "trainable": false, "dtype": "float32", "activation": "relu"}, "name": "conv5_block1_2_relu", "inbound_nodes": [[["conv5_block1_2_bn", 0, 0, {}]]]}, {"class_name": "Conv2D", "config": {"name": "conv5_block1_0_conv", "trainable": false, "dtype": "float32", "filters": 2048, "kernel_size": [1, 1], "strides": [1, 1], "padding": "valid", "data_format": "channels_last", "dilation_rate": [1, 1], "groups": 1, "activation": "linear", "use_bias": true, "kernel_initializer": {"class_name": "GlorotUniform", "config": {"seed": null}}, "bias_initializer": {"class_name": "Zeros", "config": {}}, "kernel_regularizer": null, "bias_regularizer": null, "activity_regularizer": null, "kernel_constraint": null, "bias_constraint": null}, "name": "conv5_block1_0_conv", "inbound_nodes": [[["conv5_block1_preact_relu", 0, 0, {}]]]}, {"class_name": "Conv2D", "config": {"name": "conv5_block1_3_conv", "trainable": false, "dtype": "float32", "filters": 2048, "kernel_size": [1, 1], "strides": [1, 1], "padding": "valid", "data_format": "channels_last", "dilation_rate": [1, 1], "groups": 1, "activation": "linear", "use_bias": true, "kernel_initializer": {"class_name": "GlorotUniform", "config": {"seed": null}}, "bias_initializer": {"class_name": "Zeros", "config": {}}, "kernel_regularizer": null, "bias_regularizer": null, "activity_regularizer": null, "kernel_constraint": null, "bias_constraint": null}, "name": "conv5_block1_3_conv", "inbound_nodes": [[["conv5_block1_2_relu", 0, 0, {}]]]}, {"class_name": "Add", "config": {"name": "conv5_block1_out", "trainable": false, "dtype": "float32"}, "name": "conv5_block1_out", "inbound_nodes": [[["conv5_block1_0_conv", 0, 0, {}], ["conv5_block1_3_conv", 0, 0, {}]]]}, {"class_name": "BatchNormalization", "config": {"name": "conv5_block2_preact_bn", "trainable": false, "dtype": "float32", "axis": [3], "momentum": 0.99, "epsilon": 1.001e-05, "center": true, "scale": true, "beta_initializer": {"class_name": "Zeros", "config": {}}, "gamma_initializer": {"class_name": "Ones", "config": {}}, "moving_mean_initializer": {"class_name": "Zeros", "config": {}}, "moving_variance_initializer": {"class_name": "Ones", "config": {}}, "beta_regularizer": null, "gamma_regularizer": null, "beta_constraint": null, "gamma_constraint": null}, "name": "conv5_block2_preact_bn", "inbound_nodes": [[["conv5_block1_out", 0, 0, {}]]]}, {"class_name": "Activation", "config": {"name": "conv5_block2_preact_relu", "trainable": false, "dtype": "float32", "activation": "relu"}, "name": "conv5_block2_preact_relu", "inbound_nodes": [[["conv5_block2_preact_bn", 0, 0, {}]]]}, {"class_name": "Conv2D", "config": {"name": "conv5_block2_1_conv", "trainable": false, "dtype": "float32", "filters": 512, "kernel_size": [1, 1], "strides": [1, 1], "padding": "valid", "data_format": "channels_last", "dilation_rate": [1, 1], "groups": 1, "activation": "linear", "use_bias": false, "kernel_initializer": {"class_name": "GlorotUniform", "config": {"seed": null}}, "bias_initializer": {"class_name": "Zeros", "config": {}}, "kernel_regularizer": null, "bias_regularizer": null, "activity_regularizer": null, "kernel_constraint": null, "bias_constraint": null}, "name": "conv5_block2_1_conv", "inbound_nodes": [[["conv5_block2_preact_relu", 0, 0, {}]]]}, {"class_name": "BatchNormalization", "config": {"name": "conv5_block2_1_bn", "trainable": false, "dtype": "float32", "axis": [3], "momentum": 0.99, "epsilon": 1.001e-05, "center": true, "scale": true, "beta_initializer": {"class_name": "Zeros", "config": {}}, "gamma_initializer": {"class_name": "Ones", "config": {}}, "moving_mean_initializer": {"class_name": "Zeros", "config": {}}, "moving_variance_initializer": {"class_name": "Ones", "config": {}}, "beta_regularizer": null, "gamma_regularizer": null, "beta_constraint": null, "gamma_constraint": null}, "name": "conv5_block2_1_bn", "inbound_nodes": [[["conv5_block2_1_conv", 0, 0, {}]]]}, {"class_name": "Activation", "config": {"name": "conv5_block2_1_relu", "trainable": false, "dtype": "float32", "activation": "relu"}, "name": "conv5_block2_1_relu", "inbound_nodes": [[["conv5_block2_1_bn", 0, 0, {}]]]}, {"class_name": "ZeroPadding2D", "config": {"name": "conv5_block2_2_pad", "trainable": false, "dtype": "float32", "padding": [[1, 1], [1, 1]], "data_format": "channels_last"}, "name": "conv5_block2_2_pad", "inbound_nodes": [[["conv5_block2_1_relu", 0, 0, {}]]]}, {"class_name": "Conv2D", "config": {"name": "conv5_block2_2_conv", "trainable": false, "dtype": "float32", "filters": 512, "kernel_size": [3, 3], "strides": [1, 1], "padding": "valid", "data_format": "channels_last", "dilation_rate": [1, 1], "groups": 1, "activation": "linear", "use_bias": false, "kernel_initializer": {"class_name": "GlorotUniform", "config": {"seed": null}}, "bias_initializer": {"class_name": "Zeros", "config": {}}, "kernel_regularizer": null, "bias_regularizer": null, "activity_regularizer": null, "kernel_constraint": null, "bias_constraint": null}, "name": "conv5_block2_2_conv", "inbound_nodes": [[["conv5_block2_2_pad", 0, 0, {}]]]}, {"class_name": "BatchNormalization", "config": {"name": "conv5_block2_2_bn", "trainable": false, "dtype": "float32", "axis": [3], "momentum": 0.99, "epsilon": 1.001e-05, "center": true, "scale": true, "beta_initializer": {"class_name": "Zeros", "config": {}}, "gamma_initializer": {"class_name": "Ones", "config": {}}, "moving_mean_initializer": {"class_name": "Zeros", "config": {}}, "moving_variance_initializer": {"class_name": "Ones", "config": {}}, "beta_regularizer": null, "gamma_regularizer": null, "beta_constraint": null, "gamma_constraint": null}, "name": "conv5_block2_2_bn", "inbound_nodes": [[["conv5_block2_2_conv", 0, 0, {}]]]}, {"class_name": "Activation", "config": {"name": "conv5_block2_2_relu", "trainable": false, "dtype": "float32", "activation": "relu"}, "name": "conv5_block2_2_relu", "inbound_nodes": [[["conv5_block2_2_bn", 0, 0, {}]]]}, {"class_name": "Conv2D", "config": {"name": "conv5_block2_3_conv", "trainable": false, "dtype": "float32", "filters": 2048, "kernel_size": [1, 1], "strides": [1, 1], "padding": "valid", "data_format": "channels_last", "dilation_rate": [1, 1], "groups": 1, "activation": "linear", "use_bias": true, "kernel_initializer": {"class_name": "GlorotUniform", "config": {"seed": null}}, "bias_initializer": {"class_name": "Zeros", "config": {}}, "kernel_regularizer": null, "bias_regularizer": null, "activity_regularizer": null, "kernel_constraint": null, "bias_constraint": null}, "name": "conv5_block2_3_conv", "inbound_nodes": [[["conv5_block2_2_relu", 0, 0, {}]]]}, {"class_name": "Add", "config": {"name": "conv5_block2_out", "trainable": false, "dtype": "float32"}, "name": "conv5_block2_out", "inbound_nodes": [[["conv5_block1_out", 0, 0, {}], ["conv5_block2_3_conv", 0, 0, {}]]]}, {"class_name": "BatchNormalization", "config": {"name": "conv5_block3_preact_bn", "trainable": false, "dtype": "float32", "axis": [3], "momentum": 0.99, "epsilon": 1.001e-05, "center": true, "scale": true, "beta_initializer": {"class_name": "Zeros", "config": {}}, "gamma_initializer": {"class_name": "Ones", "config": {}}, "moving_mean_initializer": {"class_name": "Zeros", "config": {}}, "moving_variance_initializer": {"class_name": "Ones", "config": {}}, "beta_regularizer": null, "gamma_regularizer": null, "beta_constraint": null, "gamma_constraint": null}, "name": "conv5_block3_preact_bn", "inbound_nodes": [[["conv5_block2_out", 0, 0, {}]]]}, {"class_name": "Activation", "config": {"name": "conv5_block3_preact_relu", "trainable": false, "dtype": "float32", "activation": "relu"}, "name": "conv5_block3_preact_relu", "inbound_nodes": [[["conv5_block3_preact_bn", 0, 0, {}]]]}, {"class_name": "Conv2D", "config": {"name": "conv5_block3_1_conv", "trainable": false, "dtype": "float32", "filters": 512, "kernel_size": [1, 1], "strides": [1, 1], "padding": "valid", "data_format": "channels_last", "dilation_rate": [1, 1], "groups": 1, "activation": "linear", "use_bias": false, "kernel_initializer": {"class_name": "GlorotUniform", "config": {"seed": null}}, "bias_initializer": {"class_name": "Zeros", "config": {}}, "kernel_regularizer": null, "bias_regularizer": null, "activity_regularizer": null, "kernel_constraint": null, "bias_constraint": null}, "name": "conv5_block3_1_conv", "inbound_nodes": [[["conv5_block3_preact_relu", 0, 0, {}]]]}, {"class_name": "BatchNormalization", "config": {"name": "conv5_block3_1_bn", "trainable": false, "dtype": "float32", "axis": [3], "momentum": 0.99, "epsilon": 1.001e-05, "center": true, "scale": true, "beta_initializer": {"class_name": "Zeros", "config": {}}, "gamma_initializer": {"class_name": "Ones", "config": {}}, "moving_mean_initializer": {"class_name": "Zeros", "config": {}}, "moving_variance_initializer": {"class_name": "Ones", "config": {}}, "beta_regularizer": null, "gamma_regularizer": null, "beta_constraint": null, "gamma_constraint": null}, "name": "conv5_block3_1_bn", "inbound_nodes": [[["conv5_block3_1_conv", 0, 0, {}]]]}, {"class_name": "Activation", "config": {"name": "conv5_block3_1_relu", "trainable": false, "dtype": "float32", "activation": "relu"}, "name": "conv5_block3_1_relu", "inbound_nodes": [[["conv5_block3_1_bn", 0, 0, {}]]]}, {"class_name": "ZeroPadding2D", "config": {"name": "conv5_block3_2_pad", "trainable": false, "dtype": "float32", "padding": [[1, 1], [1, 1]], "data_format": "channels_last"}, "name": "conv5_block3_2_pad", "inbound_nodes": [[["conv5_block3_1_relu", 0, 0, {}]]]}, {"class_name": "Conv2D", "config": {"name": "conv5_block3_2_conv", "trainable": false, "dtype": "float32", "filters": 512, "kernel_size": [3, 3], "strides": [1, 1], "padding": "valid", "data_format": "channels_last", "dilation_rate": [1, 1], "groups": 1, "activation": "linear", "use_bias": false, "kernel_initializer": {"class_name": "GlorotUniform", "config": {"seed": null}}, "bias_initializer": {"class_name": "Zeros", "config": {}}, "kernel_regularizer": null, "bias_regularizer": null, "activity_regularizer": null, "kernel_constraint": null, "bias_constraint": null}, "name": "conv5_block3_2_conv", "inbound_nodes": [[["conv5_block3_2_pad", 0, 0, {}]]]}, {"class_name": "BatchNormalization", "config": {"name": "conv5_block3_2_bn", "trainable": false, "dtype": "float32", "axis": [3], "momentum": 0.99, "epsilon": 1.001e-05, "center": true, "scale": true, "beta_initializer": {"class_name": "Zeros", "config": {}}, "gamma_initializer": {"class_name": "Ones", "config": {}}, "moving_mean_initializer": {"class_name": "Zeros", "config": {}}, "moving_variance_initializer": {"class_name": "Ones", "config": {}}, "beta_regularizer": null, "gamma_regularizer": null, "beta_constraint": null, "gamma_constraint": null}, "name": "conv5_block3_2_bn", "inbound_nodes": [[["conv5_block3_2_conv", 0, 0, {}]]]}, {"class_name": "Activation", "config": {"name": "conv5_block3_2_relu", "trainable": false, "dtype": "float32", "activation": "relu"}, "name": "conv5_block3_2_relu", "inbound_nodes": [[["conv5_block3_2_bn", 0, 0, {}]]]}, {"class_name": "Conv2D", "config": {"name": "conv5_block3_3_conv", "trainable": false, "dtype": "float32", "filters": 2048, "kernel_size": [1, 1], "strides": [1, 1], "padding": "valid", "data_format": "channels_last", "dilation_rate": [1, 1], "groups": 1, "activation": "linear", "use_bias": true, "kernel_initializer": {"class_name": "GlorotUniform", "config": {"seed": null}}, "bias_initializer": {"class_name": "Zeros", "config": {}}, "kernel_regularizer": null, "bias_regularizer": null, "activity_regularizer": null, "kernel_constraint": null, "bias_constraint": null}, "name": "conv5_block3_3_conv", "inbound_nodes": [[["conv5_block3_2_relu", 0, 0, {}]]]}, {"class_name": "Add", "config": {"name": "conv5_block3_out", "trainable": false, "dtype": "float32"}, "name": "conv5_block3_out", "inbound_nodes": [[["conv5_block2_out", 0, 0, {}], ["conv5_block3_3_conv", 0, 0, {}]]]}, {"class_name": "BatchNormalization", "config": {"name": "post_bn", "trainable": true, "dtype": "float32", "axis": [3], "momentum": 0.99, "epsilon": 1.001e-05, "center": true, "scale": true, "beta_initializer": {"class_name": "Zeros", "config": {}}, "gamma_initializer": {"class_name": "Ones", "config": {}}, "moving_mean_initializer": {"class_name": "Zeros", "config": {}}, "moving_variance_initializer": {"class_name": "Ones", "config": {}}, "beta_regularizer": null, "gamma_regularizer": null, "beta_constraint": null, "gamma_constraint": null}, "name": "post_bn", "inbound_nodes": [[["conv5_block3_out", 0, 0, {}]]]}, {"class_name": "Activation", "config": {"name": "post_relu", "trainable": true, "dtype": "float32", "activation": "relu"}, "name": "post_relu", "inbound_nodes": [[["post_bn", 0, 0, {}]]]}, {"class_name": "Flatten", "config": {"name": "flatten", "trainable": true, "dtype": "float32", "data_format": "channels_last"}, "name": "flatten", "inbound_nodes": [[["post_relu", 0, 0, {}]]]}, {"class_name": "Dense", "config": {"name": "dense", "trainable": true, "dtype": "float32", "units": 397, "activation": "softmax", "use_bias": true, "kernel_initializer": {"class_name": "GlorotUniform", "config": {"seed": null}}, "bias_initializer": {"class_name": "Zeros", "config": {}}, "kernel_regularizer": null, "bias_regularizer": null, "activity_regularizer": null, "kernel_constraint": null, "bias_constraint": null}, "name": "dense", "inbound_nodes": [[["flatten", 0, 0, {}]]]}], "input_layers": [["input_1", 0, 0]], "output_layers": [["dense", 0, 0]]}}, "training_config": {"loss": "categorical_crossentropy", "metrics": [[{"class_name": "CategoricalAccuracy", "config": {"name": "categorical_accuracy", "dtype": "float32"}}, {"class_name": "Recall", "config": {"name": "recall", "dtype": "float32", "thresholds": null, "top_k": null, "class_id": null}}, {"class_name": "Precision", "config": {"name": "precision", "dtype": "float32", "thresholds": null, "top_k": null, "class_id": null}}]], "weighted_metrics": null, "loss_weights": null, "optimizer_config": {"class_name": "Adam", "config": {"name": "Adam", "learning_rate": 9.999999747378752e-05, "decay": 0.0, "beta_1": 0.8999999761581421, "beta_2": 0.9990000128746033, "epsilon": 1e-07, "amsgrad": false}}}}, "weightsManifest": [{"paths": ["group1-shard1of61.bin", "group1-shard2of61.bin", "group1-shard3of61.bin", "group1-shard4of61.bin", "group1-shard5of61.bin", "group1-shard6of61.bin", "group1-shard7of61.bin", "group1-shard8of61.bin", "group1-shard9of61.bin", "group1-shard10of61.bin", "group1-shard11of61.bin", "group1-shard12of61.bin", "group1-shard13of61.bin", "group1-shard14of61.bin", "group1-shard15of61.bin", "group1-shard16of61.bin", "group1-shard17of61.bin", "group1-shard18of61.bin", "group1-shard19of61.bin", "group1-shard20of61.bin", "group1-shard21of61.bin", "group1-shard22of61.bin", "group1-shard23of61.bin", "group1-shard24of61.bin", "group1-shard25of61.bin", "group1-shard26of61.bin", "group1-shard27of61.bin", "group1-shard28of61.bin", "group1-shard29of61.bin", "group1-shard30of61.bin", "group1-shard31of61.bin", "group1-shard32of61.bin", "group1-shard33of61.bin", "group1-shard34of61.bin", "group1-shard35of61.bin", "group1-shard36of61.bin", "group1-shard37of61.bin", "group1-shard38of61.bin", "group1-shard39of61.bin", "group1-shard40of61.bin", "group1-shard41of61.bin", "group1-shard42of61.bin", "group1-shard43of61.bin", "group1-shard44of61.bin", "group1-shard45of61.bin", "group1-shard46of61.bin", "group1-shard47of61.bin", "group1-shard48of61.bin", "group1-shard49of61.bin", "group1-shard50of61.bin", "group1-shard51of61.bin", "group1-shard52of61.bin", "group1-shard53of61.bin", "group1-shard54of61.bin", "group1-shard55of61.bin", "group1-shard56of61.bin", "group1-shard57of61.bin", "group1-shard58of61.bin", "group1-shard59of61.bin", "group1-shard60of61.bin", "group1-shard61of61.bin"], "weights": [{"name": "conv1_conv/kernel", "shape": [7, 7, 3, 64], "dtype": "float32"}, {"name": "conv1_conv/bias", "shape": [64], "dtype": "float32"}, {"name": "conv2_block1_0_conv/kernel", "shape": [1, 1, 64, 256], "dtype": "float32"}, {"name": "conv2_block1_0_conv/bias", "shape": [256], "dtype": "float32"}, {"name": "conv2_block1_1_bn/gamma", "shape": [64], "dtype": "float32"}, {"name": "conv2_block1_1_bn/beta", "shape": [64], "dtype": "float32"}, {"name": "conv2_block1_1_bn/moving_mean", "shape": [64], "dtype": "float32"}, {"name": "conv2_block1_1_bn/moving_variance", "shape": [64], "dtype": "float32"}, {"name": "conv2_block1_1_conv/kernel", "shape": [1, 1, 64, 64], "dtype": "float32"}, {"name": "conv2_block1_2_bn/gamma", "shape": [64], "dtype": "float32"}, {"name": "conv2_block1_2_bn/beta", "shape": [64], "dtype": "float32"}, {"name": "conv2_block1_2_bn/moving_mean", "shape": [64], "dtype": "float32"}, {"name": "conv2_block1_2_bn/moving_variance", "shape": [64], "dtype": "float32"}, {"name": "conv2_block1_2_conv/kernel", "shape": [3, 3, 64, 64], "dtype": "float32"}, {"name": "conv2_block1_3_conv/kernel", "shape": [1, 1, 64, 256], "dtype": "float32"}, {"name": "conv2_block1_3_conv/bias", "shape": [256], "dtype": "float32"}, {"name": "conv2_block1_preact_bn/gamma", "shape": [64], "dtype": "float32"}, {"name": "conv2_block1_preact_bn/beta", "shape": [64], "dtype": "float32"}, {"name": "conv2_block1_preact_bn/moving_mean", "shape": [64], "dtype": "float32"}, {"name": "conv2_block1_preact_bn/moving_variance", "shape": [64], "dtype": "float32"}, {"name": "conv2_block2_1_bn/gamma", "shape": [64], "dtype": "float32"}, {"name": "conv2_block2_1_bn/beta", "shape": [64], "dtype": "float32"}, {"name": "conv2_block2_1_bn/moving_mean", "shape": [64], "dtype": "float32"}, {"name": "conv2_block2_1_bn/moving_variance", "shape": [64], "dtype": "float32"}, {"name": "conv2_block2_1_conv/kernel", "shape": [1, 1, 256, 64], "dtype": "float32"}, {"name": "conv2_block2_2_bn/gamma", "shape": [64], "dtype": "float32"}, {"name": "conv2_block2_2_bn/beta", "shape": [64], "dtype": "float32"}, {"name": "conv2_block2_2_bn/moving_mean", "shape": [64], "dtype": "float32"}, {"name": "conv2_block2_2_bn/moving_variance", "shape": [64], "dtype": "float32"}, {"name": "conv2_block2_2_conv/kernel", "shape": [3, 3, 64, 64], "dtype": "float32"}, {"name": "conv2_block2_3_conv/kernel", "shape": [1, 1, 64, 256], "dtype": "float32"}, {"name": "conv2_block2_3_conv/bias", "shape": [256], "dtype": "float32"}, {"name": "conv2_block2_preact_bn/gamma", "shape": [256], "dtype": "float32"}, {"name": "conv2_block2_preact_bn/beta", "shape": [256], "dtype": "float32"}, {"name": "conv2_block2_preact_bn/moving_mean", "shape": [256], "dtype": "float32"}, {"name": "conv2_block2_preact_bn/moving_variance", "shape": [256], "dtype": "float32"}, {"name": "conv2_block3_1_bn/gamma", "shape": [64], "dtype": "float32"}, {"name": "conv2_block3_1_bn/beta", "shape": [64], "dtype": "float32"}, {"name": "conv2_block3_1_bn/moving_mean", "shape": [64], "dtype": "float32"}, {"name": "conv2_block3_1_bn/moving_variance", "shape": [64], "dtype": "float32"}, {"name": "conv2_block3_1_conv/kernel", "shape": [1, 1, 256, 64], "dtype": "float32"}, {"name": "conv2_block3_2_bn/gamma", "shape": [64], "dtype": "float32"}, {"name": "conv2_block3_2_bn/beta", "shape": [64], "dtype": "float32"}, {"name": "conv2_block3_2_bn/moving_mean", "shape": [64], "dtype": "float32"}, {"name": "conv2_block3_2_bn/moving_variance", "shape": [64], "dtype": "float32"}, {"name": "conv2_block3_2_conv/kernel", "shape": [3, 3, 64, 64], "dtype": "float32"}, {"name": "conv2_block3_3_conv/kernel", "shape": [1, 1, 64, 256], "dtype": "float32"}, {"name": "conv2_block3_3_conv/bias", "shape": [256], "dtype": "float32"}, {"name": "conv2_block3_preact_bn/gamma", "shape": [256], "dtype": "float32"}, {"name": "conv2_block3_preact_bn/beta", "shape": [256], "dtype": "float32"}, {"name": "conv2_block3_preact_bn/moving_mean", "shape": [256], "dtype": "float32"}, {"name": "conv2_block3_preact_bn/moving_variance", "shape": [256], "dtype": "float32"}, {"name": "conv3_block1_0_conv/kernel", "shape": [1, 1, 256, 512], "dtype": "float32"}, {"name": "conv3_block1_0_conv/bias", "shape": [512], "dtype": "float32"}, {"name": "conv3_block1_1_bn/gamma", "shape": [128], "dtype": "float32"}, {"name": "conv3_block1_1_bn/beta", "shape": [128], "dtype": "float32"}, {"name": "conv3_block1_1_bn/moving_mean", "shape": [128], "dtype": "float32"}, {"name": "conv3_block1_1_bn/moving_variance", "shape": [128], "dtype": "float32"}, {"name": "conv3_block1_1_conv/kernel", "shape": [1, 1, 256, 128], "dtype": "float32"}, {"name": "conv3_block1_2_bn/gamma", "shape": [128], "dtype": "float32"}, {"name": "conv3_block1_2_bn/beta", "shape": [128], "dtype": "float32"}, {"name": "conv3_block1_2_bn/moving_mean", "shape": [128], "dtype": "float32"}, {"name": "conv3_block1_2_bn/moving_variance", "shape": [128], "dtype": "float32"}, {"name": "conv3_block1_2_conv/kernel", "shape": [3, 3, 128, 128], "dtype": "float32"}, {"name": "conv3_block1_3_conv/kernel", "shape": [1, 1, 128, 512], "dtype": "float32"}, {"name": "conv3_block1_3_conv/bias", "shape": [512], "dtype": "float32"}, {"name": "conv3_block1_preact_bn/gamma", "shape": [256], "dtype": "float32"}, {"name": "conv3_block1_preact_bn/beta", "shape": [256], "dtype": "float32"}, {"name": "conv3_block1_preact_bn/moving_mean", "shape": [256], "dtype": "float32"}, {"name": "conv3_block1_preact_bn/moving_variance", "shape": [256], "dtype": "float32"}, {"name": "conv3_block2_1_bn/gamma", "shape": [128], "dtype": "float32"}, {"name": "conv3_block2_1_bn/beta", "shape": [128], "dtype": "float32"}, {"name": "conv3_block2_1_bn/moving_mean", "shape": [128], "dtype": "float32"}, {"name": "conv3_block2_1_bn/moving_variance", "shape": [128], "dtype": "float32"}, {"name": "conv3_block2_1_conv/kernel", "shape": [1, 1, 512, 128], "dtype": "float32"}, {"name": "conv3_block2_2_bn/gamma", "shape": [128], "dtype": "float32"}, {"name": "conv3_block2_2_bn/beta", "shape": [128], "dtype": "float32"}, {"name": "conv3_block2_2_bn/moving_mean", "shape": [128], "dtype": "float32"}, {"name": "conv3_block2_2_bn/moving_variance", "shape": [128], "dtype": "float32"}, {"name": "conv3_block2_2_conv/kernel", "shape": [3, 3, 128, 128], "dtype": "float32"}, {"name": "conv3_block2_3_conv/kernel", "shape": [1, 1, 128, 512], "dtype": "float32"}, {"name": "conv3_block2_3_conv/bias", "shape": [512], "dtype": "float32"}, {"name": "conv3_block2_preact_bn/gamma", "shape": [512], "dtype": "float32"}, {"name": "conv3_block2_preact_bn/beta", "shape": [512], "dtype": "float32"}, {"name": "conv3_block2_preact_bn/moving_mean", "shape": [512], "dtype": "float32"}, {"name": "conv3_block2_preact_bn/moving_variance", "shape": [512], "dtype": "float32"}, {"name": "conv3_block3_1_bn/gamma", "shape": [128], "dtype": "float32"}, {"name": "conv3_block3_1_bn/beta", "shape": [128], "dtype": "float32"}, {"name": "conv3_block3_1_bn/moving_mean", "shape": [128], "dtype": "float32"}, {"name": "conv3_block3_1_bn/moving_variance", "shape": [128], "dtype": "float32"}, {"name": "conv3_block3_1_conv/kernel", "shape": [1, 1, 512, 128], "dtype": "float32"}, {"name": "conv3_block3_2_bn/gamma", "shape": [128], "dtype": "float32"}, {"name": "conv3_block3_2_bn/beta", "shape": [128], "dtype": "float32"}, {"name": "conv3_block3_2_bn/moving_mean", "shape": [128], "dtype": "float32"}, {"name": "conv3_block3_2_bn/moving_variance", "shape": [128], "dtype": "float32"}, {"name": "conv3_block3_2_conv/kernel", "shape": [3, 3, 128, 128], "dtype": "float32"}, {"name": "conv3_block3_3_conv/kernel", "shape": [1, 1, 128, 512], "dtype": "float32"}, {"name": "conv3_block3_3_conv/bias", "shape": [512], "dtype": "float32"}, {"name": "conv3_block3_preact_bn/gamma", "shape": [512], "dtype": "float32"}, {"name": "conv3_block3_preact_bn/beta", "shape": [512], "dtype": "float32"}, {"name": "conv3_block3_preact_bn/moving_mean", "shape": [512], "dtype": "float32"}, {"name": "conv3_block3_preact_bn/moving_variance", "shape": [512], "dtype": "float32"}, {"name": "conv3_block4_1_bn/gamma", "shape": [128], "dtype": "float32"}, {"name": "conv3_block4_1_bn/beta", "shape": [128], "dtype": "float32"}, {"name": "conv3_block4_1_bn/moving_mean", "shape": [128], "dtype": "float32"}, {"name": "conv3_block4_1_bn/moving_variance", "shape": [128], "dtype": "float32"}, {"name": "conv3_block4_1_conv/kernel", "shape": [1, 1, 512, 128], "dtype": "float32"}, {"name": "conv3_block4_2_bn/gamma", "shape": [128], "dtype": "float32"}, {"name": "conv3_block4_2_bn/beta", "shape": [128], "dtype": "float32"}, {"name": "conv3_block4_2_bn/moving_mean", "shape": [128], "dtype": "float32"}, {"name": "conv3_block4_2_bn/moving_variance", "shape": [128], "dtype": "float32"}, {"name": "conv3_block4_2_conv/kernel", "shape": [3, 3, 128, 128], "dtype": "float32"}, {"name": "conv3_block4_3_conv/kernel", "shape": [1, 1, 128, 512], "dtype": "float32"}, {"name": "conv3_block4_3_conv/bias", "shape": [512], "dtype": "float32"}, {"name": "conv3_block4_preact_bn/gamma", "shape": [512], "dtype": "float32"}, {"name": "conv3_block4_preact_bn/beta", "shape": [512], "dtype": "float32"}, {"name": "conv3_block4_preact_bn/moving_mean", "shape": [512], "dtype": "float32"}, {"name": "conv3_block4_preact_bn/moving_variance", "shape": [512], "dtype": "float32"}, {"name": "conv4_block1_0_conv/kernel", "shape": [1, 1, 512, 1024], "dtype": "float32"}, {"name": "conv4_block1_0_conv/bias", "shape": [1024], "dtype": "float32"}, {"name": "conv4_block1_1_bn/gamma", "shape": [256], "dtype": "float32"}, {"name": "conv4_block1_1_bn/beta", "shape": [256], "dtype": "float32"}, {"name": "conv4_block1_1_bn/moving_mean", "shape": [256], "dtype": "float32"}, {"name": "conv4_block1_1_bn/moving_variance", "shape": [256], "dtype": "float32"}, {"name": "conv4_block1_1_conv/kernel", "shape": [1, 1, 512, 256], "dtype": "float32"}, {"name": "conv4_block1_2_bn/gamma", "shape": [256], "dtype": "float32"}, {"name": "conv4_block1_2_bn/beta", "shape": [256], "dtype": "float32"}, {"name": "conv4_block1_2_bn/moving_mean", "shape": [256], "dtype": "float32"}, {"name": "conv4_block1_2_bn/moving_variance", "shape": [256], "dtype": "float32"}, {"name": "conv4_block1_2_conv/kernel", "shape": [3, 3, 256, 256], "dtype": "float32"}, {"name": "conv4_block1_3_conv/kernel", "shape": [1, 1, 256, 1024], "dtype": "float32"}, {"name": "conv4_block1_3_conv/bias", "shape": [1024], "dtype": "float32"}, {"name": "conv4_block1_preact_bn/gamma", "shape": [512], "dtype": "float32"}, {"name": "conv4_block1_preact_bn/beta", "shape": [512], "dtype": "float32"}, {"name": "conv4_block1_preact_bn/moving_mean", "shape": [512], "dtype": "float32"}, {"name": "conv4_block1_preact_bn/moving_variance", "shape": [512], "dtype": "float32"}, {"name": "conv4_block2_1_bn/gamma", "shape": [256], "dtype": "float32"}, {"name": "conv4_block2_1_bn/beta", "shape": [256], "dtype": "float32"}, {"name": "conv4_block2_1_bn/moving_mean", "shape": [256], "dtype": "float32"}, {"name": "conv4_block2_1_bn/moving_variance", "shape": [256], "dtype": "float32"}, {"name": "conv4_block2_1_conv/kernel", "shape": [1, 1, 1024, 256], "dtype": "float32"}, {"name": "conv4_block2_2_bn/gamma", "shape": [256], "dtype": "float32"}, {"name": "conv4_block2_2_bn/beta", "shape": [256], "dtype": "float32"}, {"name": "conv4_block2_2_bn/moving_mean", "shape": [256], "dtype": "float32"}, {"name": "conv4_block2_2_bn/moving_variance", "shape": [256], "dtype": "float32"}, {"name": "conv4_block2_2_conv/kernel", "shape": [3, 3, 256, 256], "dtype": "float32"}, {"name": "conv4_block2_3_conv/kernel", "shape": [1, 1, 256, 1024], "dtype": "float32"}, {"name": "conv4_block2_3_conv/bias", "shape": [1024], "dtype": "float32"}, {"name": "conv4_block2_preact_bn/gamma", "shape": [1024], "dtype": "float32"}, {"name": "conv4_block2_preact_bn/beta", "shape": [1024], "dtype": "float32"}, {"name": "conv4_block2_preact_bn/moving_mean", "shape": [1024], "dtype": "float32"}, {"name": "conv4_block2_preact_bn/moving_variance", "shape": [1024], "dtype": "float32"}, {"name": "conv4_block3_1_bn/gamma", "shape": [256], "dtype": "float32"}, {"name": "conv4_block3_1_bn/beta", "shape": [256], "dtype": "float32"}, {"name": "conv4_block3_1_bn/moving_mean", "shape": [256], "dtype": "float32"}, {"name": "conv4_block3_1_bn/moving_variance", "shape": [256], "dtype": "float32"}, {"name": "conv4_block3_1_conv/kernel", "shape": [1, 1, 1024, 256], "dtype": "float32"}, {"name": "conv4_block3_2_bn/gamma", "shape": [256], "dtype": "float32"}, {"name": "conv4_block3_2_bn/beta", "shape": [256], "dtype": "float32"}, {"name": "conv4_block3_2_bn/moving_mean", "shape": [256], "dtype": "float32"}, {"name": "conv4_block3_2_bn/moving_variance", "shape": [256], "dtype": "float32"}, {"name": "conv4_block3_2_conv/kernel", "shape": [3, 3, 256, 256], "dtype": "float32"}, {"name": "conv4_block3_3_conv/kernel", "shape": [1, 1, 256, 1024], "dtype": "float32"}, {"name": "conv4_block3_3_conv/bias", "shape": [1024], "dtype": "float32"}, {"name": "conv4_block3_preact_bn/gamma", "shape": [1024], "dtype": "float32"}, {"name": "conv4_block3_preact_bn/beta", "shape": [1024], "dtype": "float32"}, {"name": "conv4_block3_preact_bn/moving_mean", "shape": [1024], "dtype": "float32"}, {"name": "conv4_block3_preact_bn/moving_variance", "shape": [1024], "dtype": "float32"}, {"name": "conv4_block4_1_bn/gamma", "shape": [256], "dtype": "float32"}, {"name": "conv4_block4_1_bn/beta", "shape": [256], "dtype": "float32"}, {"name": "conv4_block4_1_bn/moving_mean", "shape": [256], "dtype": "float32"}, {"name": "conv4_block4_1_bn/moving_variance", "shape": [256], "dtype": "float32"}, {"name": "conv4_block4_1_conv/kernel", "shape": [1, 1, 1024, 256], "dtype": "float32"}, {"name": "conv4_block4_2_bn/gamma", "shape": [256], "dtype": "float32"}, {"name": "conv4_block4_2_bn/beta", "shape": [256], "dtype": "float32"}, {"name": "conv4_block4_2_bn/moving_mean", "shape": [256], "dtype": "float32"}, {"name": "conv4_block4_2_bn/moving_variance", "shape": [256], "dtype": "float32"}, {"name": "conv4_block4_2_conv/kernel", "shape": [3, 3, 256, 256], "dtype": "float32"}, {"name": "conv4_block4_3_conv/kernel", "shape": [1, 1, 256, 1024], "dtype": "float32"}, {"name": "conv4_block4_3_conv/bias", "shape": [1024], "dtype": "float32"}, {"name": "conv4_block4_preact_bn/gamma", "shape": [1024], "dtype": "float32"}, {"name": "conv4_block4_preact_bn/beta", "shape": [1024], "dtype": "float32"}, {"name": "conv4_block4_preact_bn/moving_mean", "shape": [1024], "dtype": "float32"}, {"name": "conv4_block4_preact_bn/moving_variance", "shape": [1024], "dtype": "float32"}, {"name": "conv4_block5_1_bn/gamma", "shape": [256], "dtype": "float32"}, {"name": "conv4_block5_1_bn/beta", "shape": [256], "dtype": "float32"}, {"name": "conv4_block5_1_bn/moving_mean", "shape": [256], "dtype": "float32"}, {"name": "conv4_block5_1_bn/moving_variance", "shape": [256], "dtype": "float32"}, {"name": "conv4_block5_1_conv/kernel", "shape": [1, 1, 1024, 256], "dtype": "float32"}, {"name": "conv4_block5_2_bn/gamma", "shape": [256], "dtype": "float32"}, {"name": "conv4_block5_2_bn/beta", "shape": [256], "dtype": "float32"}, {"name": "conv4_block5_2_bn/moving_mean", "shape": [256], "dtype": "float32"}, {"name": "conv4_block5_2_bn/moving_variance", "shape": [256], "dtype": "float32"}, {"name": "conv4_block5_2_conv/kernel", "shape": [3, 3, 256, 256], "dtype": "float32"}, {"name": "conv4_block5_3_conv/kernel", "shape": [1, 1, 256, 1024], "dtype": "float32"}, {"name": "conv4_block5_3_conv/bias", "shape": [1024], "dtype": "float32"}, {"name": "conv4_block5_preact_bn/gamma", "shape": [1024], "dtype": "float32"}, {"name": "conv4_block5_preact_bn/beta", "shape": [1024], "dtype": "float32"}, {"name": "conv4_block5_preact_bn/moving_mean", "shape": [1024], "dtype": "float32"}, {"name": "conv4_block5_preact_bn/moving_variance", "shape": [1024], "dtype": "float32"}, {"name": "conv4_block6_1_bn/gamma", "shape": [256], "dtype": "float32"}, {"name": "conv4_block6_1_bn/beta", "shape": [256], "dtype": "float32"}, {"name": "conv4_block6_1_bn/moving_mean", "shape": [256], "dtype": "float32"}, {"name": "conv4_block6_1_bn/moving_variance", "shape": [256], "dtype": "float32"}, {"name": "conv4_block6_1_conv/kernel", "shape": [1, 1, 1024, 256], "dtype": "float32"}, {"name": "conv4_block6_2_bn/gamma", "shape": [256], "dtype": "float32"}, {"name": "conv4_block6_2_bn/beta", "shape": [256], "dtype": "float32"}, {"name": "conv4_block6_2_bn/moving_mean", "shape": [256], "dtype": "float32"}, {"name": "conv4_block6_2_bn/moving_variance", "shape": [256], "dtype": "float32"}, {"name": "conv4_block6_2_conv/kernel", "shape": [3, 3, 256, 256], "dtype": "float32"}, {"name": "conv4_block6_3_conv/kernel", "shape": [1, 1, 256, 1024], "dtype": "float32"}, {"name": "conv4_block6_3_conv/bias", "shape": [1024], "dtype": "float32"}, {"name": "conv4_block6_preact_bn/gamma", "shape": [1024], "dtype": "float32"}, {"name": "conv4_block6_preact_bn/beta", "shape": [1024], "dtype": "float32"}, {"name": "conv4_block6_preact_bn/moving_mean", "shape": [1024], "dtype": "float32"}, {"name": "conv4_block6_preact_bn/moving_variance", "shape": [1024], "dtype": "float32"}, {"name": "conv5_block1_0_conv/kernel", "shape": [1, 1, 1024, 2048], "dtype": "float32"}, {"name": "conv5_block1_0_conv/bias", "shape": [2048], "dtype": "float32"}, {"name": "conv5_block1_1_bn/gamma", "shape": [512], "dtype": "float32"}, {"name": "conv5_block1_1_bn/beta", "shape": [512], "dtype": "float32"}, {"name": "conv5_block1_1_bn/moving_mean", "shape": [512], "dtype": "float32"}, {"name": "conv5_block1_1_bn/moving_variance", "shape": [512], "dtype": "float32"}, {"name": "conv5_block1_1_conv/kernel", "shape": [1, 1, 1024, 512], "dtype": "float32"}, {"name": "conv5_block1_2_bn/gamma", "shape": [512], "dtype": "float32"}, {"name": "conv5_block1_2_bn/beta", "shape": [512], "dtype": "float32"}, {"name": "conv5_block1_2_bn/moving_mean", "shape": [512], "dtype": "float32"}, {"name": "conv5_block1_2_bn/moving_variance", "shape": [512], "dtype": "float32"}, {"name": "conv5_block1_2_conv/kernel", "shape": [3, 3, 512, 512], "dtype": "float32"}, {"name": "conv5_block1_3_conv/kernel", "shape": [1, 1, 512, 2048], "dtype": "float32"}, {"name": "conv5_block1_3_conv/bias", "shape": [2048], "dtype": "float32"}, {"name": "conv5_block1_preact_bn/gamma", "shape": [1024], "dtype": "float32"}, {"name": "conv5_block1_preact_bn/beta", "shape": [1024], "dtype": "float32"}, {"name": "conv5_block1_preact_bn/moving_mean", "shape": [1024], "dtype": "float32"}, {"name": "conv5_block1_preact_bn/moving_variance", "shape": [1024], "dtype": "float32"}, {"name": "conv5_block2_1_bn/gamma", "shape": [512], "dtype": "float32"}, {"name": "conv5_block2_1_bn/beta", "shape": [512], "dtype": "float32"}, {"name": "conv5_block2_1_bn/moving_mean", "shape": [512], "dtype": "float32"}, {"name": "conv5_block2_1_bn/moving_variance", "shape": [512], "dtype": "float32"}, {"name": "conv5_block2_1_conv/kernel", "shape": [1, 1, 2048, 512], "dtype": "float32"}, {"name": "conv5_block2_2_bn/gamma", "shape": [512], "dtype": "float32"}, {"name": "conv5_block2_2_bn/beta", "shape": [512], "dtype": "float32"}, {"name": "conv5_block2_2_bn/moving_mean", "shape": [512], "dtype": "float32"}, {"name": "conv5_block2_2_bn/moving_variance", "shape": [512], "dtype": "float32"}, {"name": "conv5_block2_2_conv/kernel", "shape": [3, 3, 512, 512], "dtype": "float32"}, {"name": "conv5_block2_3_conv/kernel", "shape": [1, 1, 512, 2048], "dtype": "float32"}, {"name": "conv5_block2_3_conv/bias", "shape": [2048], "dtype": "float32"}, {"name": "conv5_block2_preact_bn/gamma", "shape": [2048], "dtype": "float32"}, {"name": "conv5_block2_preact_bn/beta", "shape": [2048], "dtype": "float32"}, {"name": "conv5_block2_preact_bn/moving_mean", "shape": [2048], "dtype": "float32"}, {"name": "conv5_block2_preact_bn/moving_variance", "shape": [2048], "dtype": "float32"}, {"name": "conv5_block3_1_bn/gamma", "shape": [512], "dtype": "float32"}, {"name": "conv5_block3_1_bn/beta", "shape": [512], "dtype": "float32"}, {"name": "conv5_block3_1_bn/moving_mean", "shape": [512], "dtype": "float32"}, {"name": "conv5_block3_1_bn/moving_variance", "shape": [512], "dtype": "float32"}, {"name": "conv5_block3_1_conv/kernel", "shape": [1, 1, 2048, 512], "dtype": "float32"}, {"name": "conv5_block3_2_bn/gamma", "shape": [512], "dtype": "float32"}, {"name": "conv5_block3_2_bn/beta", "shape": [512], "dtype": "float32"}, {"name": "conv5_block3_2_bn/moving_mean", "shape": [512], "dtype": "float32"}, {"name": "conv5_block3_2_bn/moving_variance", "shape": [512], "dtype": "float32"}, {"name": "conv5_block3_2_conv/kernel", "shape": [3, 3, 512, 512], "dtype": "float32"}, {"name": "conv5_block3_3_conv/kernel", "shape": [1, 1, 512, 2048], "dtype": "float32"}, {"name": "conv5_block3_3_conv/bias", "shape": [2048], "dtype": "float32"}, {"name": "conv5_block3_preact_bn/gamma", "shape": [2048], "dtype": "float32"}, {"name": "conv5_block3_preact_bn/beta", "shape": [2048], "dtype": "float32"}, {"name": "conv5_block3_preact_bn/moving_mean", "shape": [2048], "dtype": "float32"}, {"name": "conv5_block3_preact_bn/moving_variance", "shape": [2048], "dtype": "float32"}, {"name": "dense/kernel", "shape": [100352, 397], "dtype": "float32"}, {"name": "dense/bias", "shape": [397], "dtype": "float32"}, {"name": "post_bn/gamma", "shape": [2048], "dtype": "float32"}, {"name": "post_bn/beta", "shape": [2048], "dtype": "float32"}, {"name": "post_bn/moving_mean", "shape": [2048], "dtype": "float32"}, {"name": "post_bn/moving_variance", "shape": [2048], "dtype": "float32"}]}]}